/home/konrad/programs/anaconda3/envs/tfgpu/bin/python /snap/pycharm-professional/173/plugins/python/helpers/pydev/pydevconsole.py --mode=client --port=46621
import sys; print('Python %s on %s' % (sys.version, sys.platform))
sys.path.extend(['/home/konrad/repos/gsn-1'])
Python 3.7.5 (default, Oct 25 2019, 15:51:11)
Type 'copyright', 'credits' or 'license' for more information
IPython 7.10.1 -- An enhanced Interactive Python. Type '?' for help.
PyDev console: using IPython 7.10.1
Python 3.7.5 (default, Oct 25 2019, 15:51:11)
[GCC 7.3.0] on linux
In[2]: runfile('/home/konrad/repos/gsn-1/cats_vs_dogs/tuning.py', wdir='/home/konrad/repos/gsn-1/cats_vs_dogs')
Using TensorFlow backend.
2019-12-12 10:51:02.709892: I tensorflow/stream_executor/platform/default/dso_loader.cc:44] Successfully opened dynamic library libcuda.so.1
2019-12-12 10:51:02.737989: I tensorflow/stream_executor/cuda/cuda_gpu_executor.cc:1006] successful NUMA node read from SysFS had negative value (-1), but there must be at least one NUMA node, so returning NUMA node zero
2019-12-12 10:51:02.738409: I tensorflow/core/common_runtime/gpu/gpu_device.cc:1618] Found device 0 with properties:
name: GeForce RTX 2060 major: 7 minor: 5 memoryClockRate(GHz): 1.71
pciBusID: 0000:1c:00.0
2019-12-12 10:51:02.738581: I tensorflow/stream_executor/platform/default/dso_loader.cc:44] Successfully opened dynamic library libcudart.so.10.0
2019-12-12 10:51:02.739439: I tensorflow/stream_executor/platform/default/dso_loader.cc:44] Successfully opened dynamic library libcublas.so.10.0
2019-12-12 10:51:02.740268: I tensorflow/stream_executor/platform/default/dso_loader.cc:44] Successfully opened dynamic library libcufft.so.10.0
2019-12-12 10:51:02.740444: I tensorflow/stream_executor/platform/default/dso_loader.cc:44] Successfully opened dynamic library libcurand.so.10.0
2019-12-12 10:51:02.741433: I tensorflow/stream_executor/platform/default/dso_loader.cc:44] Successfully opened dynamic library libcusolver.so.10.0
2019-12-12 10:51:02.742268: I tensorflow/stream_executor/platform/default/dso_loader.cc:44] Successfully opened dynamic library libcusparse.so.10.0
2019-12-12 10:51:02.744754: I tensorflow/stream_executor/platform/default/dso_loader.cc:44] Successfully opened dynamic library libcudnn.so.7
2019-12-12 10:51:02.744902: I tensorflow/stream_executor/cuda/cuda_gpu_executor.cc:1006] successful NUMA node read from SysFS had negative value (-1), but there must be at least one NUMA node, so returning NUMA node zero
2019-12-12 10:51:02.745334: I tensorflow/stream_executor/cuda/cuda_gpu_executor.cc:1006] successful NUMA node read from SysFS had negative value (-1), but there must be at least one NUMA node, so returning NUMA node zero
2019-12-12 10:51:02.745664: I tensorflow/core/common_runtime/gpu/gpu_device.cc:1746] Adding visible gpu devices: 0
  0%|          | 0/108 [00:00<?, ?it/s]2019-12-12 10:51:02.792618: I tensorflow/core/platform/cpu_feature_guard.cc:142] Your CPU supports instructions that this TensorFlow binary was not compiled to use: SSE4.1 SSE4.2 AVX AVX2 FMA
2019-12-12 10:51:02.798968: I tensorflow/core/platform/profile_utils/cpu_utils.cc:94] CPU Frequency: 3399445000 Hz
2019-12-12 10:51:02.799274: I tensorflow/compiler/xla/service/service.cc:168] XLA service 0x55a1058d33a0 executing computations on platform Host. Devices:
2019-12-12 10:51:02.799286: I tensorflow/compiler/xla/service/service.cc:175]   StreamExecutor device (0): Host, Default Version
2019-12-12 10:51:02.799485: I tensorflow/stream_executor/cuda/cuda_gpu_executor.cc:1006] successful NUMA node read from SysFS had negative value (-1), but there must be at least one NUMA node, so returning NUMA node zero
2019-12-12 10:51:02.799876: I tensorflow/core/common_runtime/gpu/gpu_device.cc:1618] Found device 0 with properties:
name: GeForce RTX 2060 major: 7 minor: 5 memoryClockRate(GHz): 1.71
pciBusID: 0000:1c:00.0
2019-12-12 10:51:02.799920: I tensorflow/stream_executor/platform/default/dso_loader.cc:44] Successfully opened dynamic library libcudart.so.10.0
2019-12-12 10:51:02.799933: I tensorflow/stream_executor/platform/default/dso_loader.cc:44] Successfully opened dynamic library libcublas.so.10.0
2019-12-12 10:51:02.799944: I tensorflow/stream_executor/platform/default/dso_loader.cc:44] Successfully opened dynamic library libcufft.so.10.0
2019-12-12 10:51:02.799955: I tensorflow/stream_executor/platform/default/dso_loader.cc:44] Successfully opened dynamic library libcurand.so.10.0
2019-12-12 10:51:02.799965: I tensorflow/stream_executor/platform/default/dso_loader.cc:44] Successfully opened dynamic library libcusolver.so.10.0
2019-12-12 10:51:02.799975: I tensorflow/stream_executor/platform/default/dso_loader.cc:44] Successfully opened dynamic library libcusparse.so.10.0
2019-12-12 10:51:02.799986: I tensorflow/stream_executor/platform/default/dso_loader.cc:44] Successfully opened dynamic library libcudnn.so.7
2019-12-12 10:51:02.800045: I tensorflow/stream_executor/cuda/cuda_gpu_executor.cc:1006] successful NUMA node read from SysFS had negative value (-1), but there must be at least one NUMA node, so returning NUMA node zero
2019-12-12 10:51:02.800462: I tensorflow/stream_executor/cuda/cuda_gpu_executor.cc:1006] successful NUMA node read from SysFS had negative value (-1), but there must be at least one NUMA node, so returning NUMA node zero
2019-12-12 10:51:02.800855: I tensorflow/core/common_runtime/gpu/gpu_device.cc:1746] Adding visible gpu devices: 0
2019-12-12 10:51:02.800892: I tensorflow/stream_executor/platform/default/dso_loader.cc:44] Successfully opened dynamic library libcudart.so.10.0
2019-12-12 10:51:02.885176: I tensorflow/core/common_runtime/gpu/gpu_device.cc:1159] Device interconnect StreamExecutor with strength 1 edge matrix:
2019-12-12 10:51:02.885204: I tensorflow/core/common_runtime/gpu/gpu_device.cc:1165]      0
2019-12-12 10:51:02.885209: I tensorflow/core/common_runtime/gpu/gpu_device.cc:1178] 0:   N
2019-12-12 10:51:02.885358: I tensorflow/stream_executor/cuda/cuda_gpu_executor.cc:1006] successful NUMA node read from SysFS had negative value (-1), but there must be at least one NUMA node, so returning NUMA node zero
2019-12-12 10:51:02.885787: I tensorflow/stream_executor/cuda/cuda_gpu_executor.cc:1006] successful NUMA node read from SysFS had negative value (-1), but there must be at least one NUMA node, so returning NUMA node zero
2019-12-12 10:51:02.886206: I tensorflow/stream_executor/cuda/cuda_gpu_executor.cc:1006] successful NUMA node read from SysFS had negative value (-1), but there must be at least one NUMA node, so returning NUMA node zero
2019-12-12 10:51:02.886594: I tensorflow/core/common_runtime/gpu/gpu_device.cc:1304] Created TensorFlow device (/job:localhost/replica:0/task:0/device:GPU:0 with 1024 MB memory) -> physical GPU (device: 0, name: GeForce RTX 2060, pci bus id: 0000:1c:00.0, compute capability: 7.5)
2019-12-12 10:51:02.888133: I tensorflow/compiler/xla/service/service.cc:168] XLA service 0x55a10977d7a0 executing computations on platform CUDA. Devices:
2019-12-12 10:51:02.888147: I tensorflow/compiler/xla/service/service.cc:175]   StreamExecutor device (0): GeForce RTX 2060, Compute Capability 7.5
Found 18697 images belonging to 2 classes.
Found 6303 images belonging to 2 classes.
Epoch 1/5
2019-12-12 10:51:04.158337: I tensorflow/stream_executor/platform/default/dso_loader.cc:44] Successfully opened dynamic library libcudnn.so.7
2019-12-12 10:51:05.360881: I tensorflow/stream_executor/platform/default/dso_loader.cc:44] Successfully opened dynamic library libcublas.so.10.0
1169/1169 [==============================] - 100s 86ms/step - loss: 7.6298 - accuracy: 0.5020 - val_loss: 7.7589 - val_accuracy: 0.4941
Epoch 2/5
1169/1169 [==============================] - 100s 85ms/step - loss: 7.6349 - accuracy: 0.5020 - val_loss: 7.7589 - val_accuracy: 0.4941
Epoch 3/5
1169/1169 [==============================] - 100s 85ms/step - loss: 7.6356 - accuracy: 0.5020 - val_loss: 7.7589 - val_accuracy: 0.4941
Epoch 4/5
1169/1169 [==============================] - 98s 84ms/step - loss: 7.6356 - accuracy: 0.5020 - val_loss: 7.7589 - val_accuracy: 0.4941
Epoch 5/5
1169/1169 [==============================] - 98s 84ms/step - loss: 7.6368 - accuracy: 0.5020 - val_loss: 7.7589 - val_accuracy: 0.4941
  1%|          | 1/108 [08:17<14:47:05, 497.43s/it]Found 18697 images belonging to 2 classes.
Found 6303 images belonging to 2 classes.
Epoch 1/5
1169/1169 [==============================] - 56s 48ms/step - loss: 0.5630 - accuracy: 0.7150 - val_loss: 0.4591 - val_accuracy: 0.7841
Epoch 2/5
1169/1169 [==============================] - 55s 47ms/step - loss: 0.4079 - accuracy: 0.8129 - val_loss: 0.3788 - val_accuracy: 0.8298
Epoch 3/5
1169/1169 [==============================] - 56s 48ms/step - loss: 0.3199 - accuracy: 0.8607 - val_loss: 0.3434 - val_accuracy: 0.8459
Epoch 4/5
1169/1169 [==============================] - 57s 49ms/step - loss: 0.2401 - accuracy: 0.8993 - val_loss: 0.3942 - val_accuracy: 0.8507
Epoch 5/5
1169/1169 [==============================] - 56s 48ms/step - loss: 0.1657 - accuracy: 0.9344 - val_loss: 0.3877 - val_accuracy: 0.8551
  2%|▏         | 2/108 [12:58<12:44:23, 432.67s/it]Found 18697 images belonging to 2 classes.
Found 6303 images belonging to 2 classes.
Epoch 1/5
1169/1169 [==============================] - 48s 41ms/step - loss: 0.5904 - accuracy: 0.6882 - val_loss: 0.5082 - val_accuracy: 0.7574
Epoch 2/5
1169/1169 [==============================] - 47s 40ms/step - loss: 0.4431 - accuracy: 0.7943 - val_loss: 0.4347 - val_accuracy: 0.7944
Epoch 3/5
1169/1169 [==============================] - 47s 40ms/step - loss: 0.3654 - accuracy: 0.8393 - val_loss: 0.3959 - val_accuracy: 0.8209
Epoch 4/5
1169/1169 [==============================] - 46s 40ms/step - loss: 0.2987 - accuracy: 0.8690 - val_loss: 0.3924 - val_accuracy: 0.8342
Epoch 5/5
1169/1169 [==============================] - 46s 39ms/step - loss: 0.2304 - accuracy: 0.9027 - val_loss: 0.4012 - val_accuracy: 0.8312
  3%|▎         | 3/108 [16:53<10:53:19, 373.32s/it]Found 18697 images belonging to 2 classes.
Found 6303 images belonging to 2 classes.
Epoch 1/5
1169/1169 [==============================] - 81s 69ms/step - loss: 7.6322 - accuracy: 0.5019 - val_loss: 7.7581 - val_accuracy: 0.4941
Epoch 2/5
1169/1169 [==============================] - 79s 67ms/step - loss: 7.6368 - accuracy: 0.5020 - val_loss: 7.7577 - val_accuracy: 0.4941
Epoch 3/5
1169/1169 [==============================] - 77s 66ms/step - loss: 7.6356 - accuracy: 0.5020 - val_loss: 7.7581 - val_accuracy: 0.4941
Epoch 4/5
1169/1169 [==============================] - 78s 66ms/step - loss: 7.6343 - accuracy: 0.5020 - val_loss: 7.7571 - val_accuracy: 0.4941
Epoch 5/5
1169/1169 [==============================] - 77s 66ms/step - loss: 7.6349 - accuracy: 0.5020 - val_loss: 7.7581 - val_accuracy: 0.4941
  4%|▎         | 4/108 [23:26<10:57:19, 379.22s/it]Found 18697 images belonging to 2 classes.
Found 6303 images belonging to 2 classes.
Epoch 1/5
1169/1169 [==============================] - 48s 41ms/step - loss: 7.7398 - accuracy: 0.4978 - val_loss: 7.6205 - val_accuracy: 0.5059
Epoch 2/5
1169/1169 [==============================] - 47s 40ms/step - loss: 7.7437 - accuracy: 0.4980 - val_loss: 7.6203 - val_accuracy: 0.5059
Epoch 3/5
1169/1169 [==============================] - 47s 40ms/step - loss: 7.7437 - accuracy: 0.4980 - val_loss: 7.6208 - val_accuracy: 0.5059
Epoch 4/5
1169/1169 [==============================] - 47s 40ms/step - loss: 7.7437 - accuracy: 0.4980 - val_loss: 7.6208 - val_accuracy: 0.5059
Epoch 5/5
1169/1169 [==============================] - 47s 40ms/step - loss: 7.7437 - accuracy: 0.4980 - val_loss: 7.6208 - val_accuracy: 0.5059
  5%|▍         | 5/108 [27:23<9:37:30, 336.42s/it] Found 18697 images belonging to 2 classes.
Found 6303 images belonging to 2 classes.
Epoch 1/5
1169/1169 [==============================] - 44s 38ms/step - loss: 0.5872 - accuracy: 0.6856 - val_loss: 0.4843 - val_accuracy: 0.7647
Epoch 2/5
1169/1169 [==============================] - 44s 37ms/step - loss: 0.4607 - accuracy: 0.7844 - val_loss: 0.4461 - val_accuracy: 0.7898
Epoch 3/5
1169/1169 [==============================] - 44s 38ms/step - loss: 0.4020 - accuracy: 0.8161 - val_loss: 0.3981 - val_accuracy: 0.8083
Epoch 4/5
1169/1169 [==============================] - 44s 37ms/step - loss: 0.3420 - accuracy: 0.8462 - val_loss: 0.3688 - val_accuracy: 0.8360
Epoch 5/5
1169/1169 [==============================] - 44s 37ms/step - loss: 0.2774 - accuracy: 0.8813 - val_loss: 0.4008 - val_accuracy: 0.8221
  6%|▌         | 6/108 [31:03<8:32:46, 301.63s/it]Found 18697 images belonging to 2 classes.
Found 6303 images belonging to 2 classes.
Epoch 1/5
1169/1169 [==============================] - 103s 88ms/step - loss: 7.6319 - accuracy: 0.5021 - val_loss: 7.7584 - val_accuracy: 0.4941
Epoch 2/5
1169/1169 [==============================] - 102s 87ms/step - loss: 7.6343 - accuracy: 0.5020 - val_loss: 7.7584 - val_accuracy: 0.4941
Epoch 3/5
1169/1169 [==============================] - 102s 87ms/step - loss: 7.6349 - accuracy: 0.5020 - val_loss: 7.7584 - val_accuracy: 0.4941
Epoch 4/5
1169/1169 [==============================] - 103s 88ms/step - loss: 7.6356 - accuracy: 0.5020 - val_loss: 7.7584 - val_accuracy: 0.4941
Epoch 5/5
1169/1169 [==============================] - 107s 91ms/step - loss: 7.6362 - accuracy: 0.5020 - val_loss: 7.7584 - val_accuracy: 0.4941
  6%|▋         | 7/108 [39:41<10:16:45, 366.39s/it]Found 18697 images belonging to 2 classes.
Found 6303 images belonging to 2 classes.
Epoch 1/5
1169/1169 [==============================] - 60s 51ms/step - loss: 0.5832 - accuracy: 0.6936 - val_loss: 0.4803 - val_accuracy: 0.7701
Epoch 2/5
1169/1169 [==============================] - 59s 50ms/step - loss: 0.4362 - accuracy: 0.8014 - val_loss: 0.3984 - val_accuracy: 0.8163
Epoch 3/5
1169/1169 [==============================] - 64s 54ms/step - loss: 0.3458 - accuracy: 0.8512 - val_loss: 0.3577 - val_accuracy: 0.8355
Epoch 4/5
1169/1169 [==============================] - 60s 51ms/step - loss: 0.2612 - accuracy: 0.8902 - val_loss: 0.3491 - val_accuracy: 0.8483
Epoch 5/5
1169/1169 [==============================] - 60s 52ms/step - loss: 0.1789 - accuracy: 0.9288 - val_loss: 0.3833 - val_accuracy: 0.8442
  7%|▋         | 8/108 [44:44<9:38:48, 347.28s/it] Found 18697 images belonging to 2 classes.
Found 6303 images belonging to 2 classes.
Epoch 1/5
1169/1169 [==============================] - 55s 47ms/step - loss: 0.6058 - accuracy: 0.6741 - val_loss: 0.4905 - val_accuracy: 0.7638
Epoch 2/5
1169/1169 [==============================] - 56s 48ms/step - loss: 0.4526 - accuracy: 0.7923 - val_loss: 0.4563 - val_accuracy: 0.7852
Epoch 3/5
1169/1169 [==============================] - 55s 47ms/step - loss: 0.3744 - accuracy: 0.8305 - val_loss: 0.3761 - val_accuracy: 0.8266
Epoch 4/5
1169/1169 [==============================] - 55s 47ms/step - loss: 0.3049 - accuracy: 0.8668 - val_loss: 0.3716 - val_accuracy: 0.8377
Epoch 5/5
1169/1169 [==============================] - 54s 46ms/step - loss: 0.2362 - accuracy: 0.9027 - val_loss: 0.3638 - val_accuracy: 0.8496
  8%|▊         | 9/108 [49:19<8:57:38, 325.84s/it]Found 18697 images belonging to 2 classes.
Found 6303 images belonging to 2 classes.
Epoch 1/5
1169/1169 [==============================] - 94s 80ms/step - loss: 7.6318 - accuracy: 0.5018 - val_loss: 7.7581 - val_accuracy: 0.4941
Epoch 2/5
1169/1169 [==============================] - 95s 81ms/step - loss: 7.6368 - accuracy: 0.5020 - val_loss: 7.7577 - val_accuracy: 0.4941
Epoch 3/5
1169/1169 [==============================] - 95s 81ms/step - loss: 7.6349 - accuracy: 0.5020 - val_loss: 7.7574 - val_accuracy: 0.4941
Epoch 4/5
1169/1169 [==============================] - 95s 82ms/step - loss: 7.6356 - accuracy: 0.5020 - val_loss: 7.7574 - val_accuracy: 0.4941
Epoch 5/5
1169/1169 [==============================] - 94s 80ms/step - loss: 7.6356 - accuracy: 0.5020 - val_loss: 7.7574 - val_accuracy: 0.4941
  9%|▉         | 10/108 [57:13<10:04:48, 370.29s/it]Found 18697 images belonging to 2 classes.
Found 6303 images belonging to 2 classes.
Epoch 1/5
1169/1169 [==============================] - 51s 43ms/step - loss: 7.6288 - accuracy: 0.5021 - val_loss: 7.7581 - val_accuracy: 0.4941
Epoch 2/5
1169/1169 [==============================] - 50s 43ms/step - loss: 7.6356 - accuracy: 0.5020 - val_loss: 7.7579 - val_accuracy: 0.4941
Epoch 3/5
1169/1169 [==============================] - 51s 43ms/step - loss: 7.6362 - accuracy: 0.5020 - val_loss: 7.7573 - val_accuracy: 0.4941
Epoch 4/5
1169/1169 [==============================] - 51s 43ms/step - loss: 7.6343 - accuracy: 0.5020 - val_loss: 7.7581 - val_accuracy: 0.4941
Epoch 5/5
1169/1169 [==============================] - 51s 43ms/step - loss: 7.6368 - accuracy: 0.5020 - val_loss: 7.7582 - val_accuracy: 0.4941
 10%|█         | 11/108 [1:01:28<9:02:21, 335.48s/it]Found 18697 images belonging to 2 classes.
Found 6303 images belonging to 2 classes.
Epoch 1/5
1169/1169 [==============================] - 49s 42ms/step - loss: 0.6120 - accuracy: 0.6582 - val_loss: 0.4902 - val_accuracy: 0.7642
Epoch 2/5
1169/1169 [==============================] - 47s 40ms/step - loss: 0.4761 - accuracy: 0.7716 - val_loss: 0.4300 - val_accuracy: 0.8064
Epoch 3/5
1169/1169 [==============================] - 48s 41ms/step - loss: 0.3975 - accuracy: 0.8193 - val_loss: 0.4038 - val_accuracy: 0.8169
Epoch 4/5
1169/1169 [==============================] - 48s 41ms/step - loss: 0.3357 - accuracy: 0.8502 - val_loss: 0.3901 - val_accuracy: 0.8185
Epoch 5/5
1169/1169 [==============================] - 48s 41ms/step - loss: 0.2720 - accuracy: 0.8814 - val_loss: 0.4088 - val_accuracy: 0.8233
 11%|█         | 12/108 [1:05:28<8:11:01, 306.89s/it]Found 18697 images belonging to 2 classes.
Found 6303 images belonging to 2 classes.
Epoch 1/5
1169/1169 [==============================] - 110s 94ms/step - loss: 7.7348 - accuracy: 0.4981 - val_loss: 7.6205 - val_accuracy: 0.5059
Epoch 2/5
1169/1169 [==============================] - 105s 90ms/step - loss: 7.7450 - accuracy: 0.4980 - val_loss: 7.6205 - val_accuracy: 0.5059
Epoch 3/5
1169/1169 [==============================] - 103s 88ms/step - loss: 7.7437 - accuracy: 0.4980 - val_loss: 7.6205 - val_accuracy: 0.5059
Epoch 4/5
1169/1169 [==============================] - 104s 89ms/step - loss: 7.7424 - accuracy: 0.4980 - val_loss: 7.6205 - val_accuracy: 0.5059
Epoch 5/5
1169/1169 [==============================] - 103s 88ms/step - loss: 7.7431 - accuracy: 0.4980 - val_loss: 7.6205 - val_accuracy: 0.5059
 12%|█▏        | 13/108 [1:14:14<9:50:01, 372.65s/it]Found 18697 images belonging to 2 classes.
Found 6303 images belonging to 2 classes.
Epoch 1/5
1169/1169 [==============================] - 60s 51ms/step - loss: 0.6147 - accuracy: 0.6774 - val_loss: 0.4932 - val_accuracy: 0.7590
Epoch 2/5
1169/1169 [==============================] - 61s 52ms/step - loss: 0.4584 - accuracy: 0.7827 - val_loss: 0.4227 - val_accuracy: 0.8099
Epoch 3/5
1169/1169 [==============================] - 62s 53ms/step - loss: 0.3653 - accuracy: 0.8361 - val_loss: 0.3768 - val_accuracy: 0.8291
Epoch 4/5
1169/1169 [==============================] - 61s 52ms/step - loss: 0.2917 - accuracy: 0.8737 - val_loss: 0.3606 - val_accuracy: 0.8450
Epoch 5/5
1169/1169 [==============================] - 59s 51ms/step - loss: 0.2209 - accuracy: 0.9084 - val_loss: 0.4129 - val_accuracy: 0.8437
 13%|█▎        | 14/108 [1:19:18<9:11:26, 351.99s/it]Found 18697 images belonging to 2 classes.
Found 6303 images belonging to 2 classes.
Epoch 1/5
1169/1169 [==============================] - 54s 46ms/step - loss: 0.6138 - accuracy: 0.6668 - val_loss: 0.5563 - val_accuracy: 0.7117
Epoch 2/5
1169/1169 [==============================] - 55s 47ms/step - loss: 0.4654 - accuracy: 0.7800 - val_loss: 0.4406 - val_accuracy: 0.7891
Epoch 3/5
1169/1169 [==============================] - 56s 48ms/step - loss: 0.3867 - accuracy: 0.8223 - val_loss: 0.4003 - val_accuracy: 0.8155
Epoch 4/5
1169/1169 [==============================] - 57s 49ms/step - loss: 0.3227 - accuracy: 0.8588 - val_loss: 0.3697 - val_accuracy: 0.8394
Epoch 5/5
1169/1169 [==============================] - 57s 49ms/step - loss: 0.2547 - accuracy: 0.8911 - val_loss: 0.3675 - val_accuracy: 0.8364
 14%|█▍        | 15/108 [1:23:58<8:32:09, 330.42s/it]Found 18697 images belonging to 2 classes.
Found 6303 images belonging to 2 classes.
Epoch 1/5
1169/1169 [==============================] - 92s 79ms/step - loss: 7.7387 - accuracy: 0.4979 - val_loss: 7.6206 - val_accuracy: 0.5059
Epoch 2/5
1169/1169 [==============================] - 87s 74ms/step - loss: 7.7431 - accuracy: 0.4980 - val_loss: 7.6201 - val_accuracy: 0.5059
Epoch 3/5
1169/1169 [==============================] - 89s 76ms/step - loss: 7.7431 - accuracy: 0.4980 - val_loss: 7.6213 - val_accuracy: 0.5059
Epoch 4/5
1169/1169 [==============================] - 85s 73ms/step - loss: 7.7431 - accuracy: 0.4980 - val_loss: 7.6213 - val_accuracy: 0.5059
Epoch 5/5
1169/1169 [==============================] - 84s 72ms/step - loss: 7.7437 - accuracy: 0.4980 - val_loss: 7.6206 - val_accuracy: 0.5059
 15%|█▍        | 16/108 [1:31:16<9:16:13, 362.76s/it]Found 18697 images belonging to 2 classes.
Found 6303 images belonging to 2 classes.
Epoch 1/5
1169/1169 [==============================] - 50s 42ms/step - loss: 7.6328 - accuracy: 0.5018 - val_loss: 7.7579 - val_accuracy: 0.4941
Epoch 2/5
1169/1169 [==============================] - 50s 43ms/step - loss: 7.6368 - accuracy: 0.5020 - val_loss: 7.7579 - val_accuracy: 0.4941
Epoch 3/5
1169/1169 [==============================] - 50s 42ms/step - loss: 7.6349 - accuracy: 0.5020 - val_loss: 7.7581 - val_accuracy: 0.4941
Epoch 4/5
1169/1169 [==============================] - 50s 43ms/step - loss: 7.6356 - accuracy: 0.5020 - val_loss: 7.7581 - val_accuracy: 0.4941
Epoch 5/5
1169/1169 [==============================] - 48s 41ms/step - loss: 7.6362 - accuracy: 0.5020 - val_loss: 7.7584 - val_accuracy: 0.4941
 16%|█▌        | 17/108 [1:35:25<8:18:31, 328.70s/it]Found 18697 images belonging to 2 classes.
Found 6303 images belonging to 2 classes.
Epoch 1/5
1169/1169 [==============================] - 47s 40ms/step - loss: 0.6190 - accuracy: 0.6496 - val_loss: 0.5119 - val_accuracy: 0.7522
Epoch 2/5
1169/1169 [==============================] - 46s 40ms/step - loss: 0.4918 - accuracy: 0.7646 - val_loss: 0.4647 - val_accuracy: 0.7744
Epoch 3/5
1169/1169 [==============================] - 46s 39ms/step - loss: 0.4211 - accuracy: 0.8056 - val_loss: 0.4925 - val_accuracy: 0.7841
Epoch 4/5
1169/1169 [==============================] - 46s 39ms/step - loss: 0.3666 - accuracy: 0.8355 - val_loss: 0.3924 - val_accuracy: 0.8233
Epoch 5/5
1169/1169 [==============================] - 46s 39ms/step - loss: 0.3096 - accuracy: 0.8644 - val_loss: 0.3912 - val_accuracy: 0.8263
 17%|█▋        | 18/108 [1:39:18<7:29:40, 299.79s/it]Found 18697 images belonging to 2 classes.
Found 6303 images belonging to 2 classes.
Epoch 1/10
1169/1169 [==============================] - 100s 86ms/step - loss: 7.6297 - accuracy: 0.5019 - val_loss: 7.7579 - val_accuracy: 0.4941
Epoch 2/10
1169/1169 [==============================] - 100s 86ms/step - loss: 7.6356 - accuracy: 0.5020 - val_loss: 7.7576 - val_accuracy: 0.4941
Epoch 3/10
1169/1169 [==============================] - 99s 85ms/step - loss: 7.6349 - accuracy: 0.5020 - val_loss: 7.7576 - val_accuracy: 0.4941
Epoch 4/10
1169/1169 [==============================] - 99s 84ms/step - loss: 7.6368 - accuracy: 0.5020 - val_loss: 7.7576 - val_accuracy: 0.4941
Epoch 5/10
1169/1169 [==============================] - 99s 85ms/step - loss: 7.6343 - accuracy: 0.5020 - val_loss: 7.7576 - val_accuracy: 0.4941
Epoch 6/10
1169/1169 [==============================] - 97s 83ms/step - loss: 7.6362 - accuracy: 0.5020 - val_loss: 7.7576 - val_accuracy: 0.4941
Epoch 7/10
1169/1169 [==============================] - 98s 84ms/step - loss: 7.6349 - accuracy: 0.5020 - val_loss: 7.7576 - val_accuracy: 0.4941
Epoch 8/10
1169/1169 [==============================] - 100s 85ms/step - loss: 7.6349 - accuracy: 0.5020 - val_loss: 7.7576 - val_accuracy: 0.4941
Epoch 9/10
1169/1169 [==============================] - 101s 86ms/step - loss: 7.6368 - accuracy: 0.5020 - val_loss: 7.7576 - val_accuracy: 0.4941
Epoch 10/10
1169/1169 [==============================] - 102s 88ms/step - loss: 7.6343 - accuracy: 0.5020 - val_loss: 7.7579 - val_accuracy: 0.4941
 18%|█▊        | 19/108 [1:55:54<12:34:43, 508.81s/it]Found 18697 images belonging to 2 classes.
Found 6303 images belonging to 2 classes.
Epoch 1/10
1169/1169 [==============================] - 61s 52ms/step - loss: 7.7398 - accuracy: 0.4978 - val_loss: 7.6206 - val_accuracy: 0.5059
Epoch 2/10
1169/1169 [==============================] - 59s 50ms/step - loss: 7.7437 - accuracy: 0.4980 - val_loss: 7.6210 - val_accuracy: 0.5059
Epoch 3/10
1169/1169 [==============================] - 58s 50ms/step - loss: 7.7437 - accuracy: 0.4980 - val_loss: 7.6206 - val_accuracy: 0.5059
Epoch 4/10
1169/1169 [==============================] - 61s 52ms/step - loss: 7.7437 - accuracy: 0.4980 - val_loss: 7.6208 - val_accuracy: 0.5059
Epoch 5/10
1169/1169 [==============================] - 60s 51ms/step - loss: 7.7456 - accuracy: 0.4980 - val_loss: 7.6205 - val_accuracy: 0.5059
Epoch 6/10
1169/1169 [==============================] - 60s 52ms/step - loss: 7.7431 - accuracy: 0.4980 - val_loss: 7.6205 - val_accuracy: 0.5059
Epoch 7/10
1169/1169 [==============================] - 61s 52ms/step - loss: 7.7444 - accuracy: 0.4980 - val_loss: 7.6208 - val_accuracy: 0.5059
Epoch 8/10
1169/1169 [==============================] - 61s 52ms/step - loss: 7.7444 - accuracy: 0.4980 - val_loss: 7.6208 - val_accuracy: 0.5059
Epoch 9/10
1169/1169 [==============================] - 59s 51ms/step - loss: 7.7437 - accuracy: 0.4980 - val_loss: 7.6200 - val_accuracy: 0.5059
Epoch 10/10
1169/1169 [==============================] - 59s 51ms/step - loss: 7.7424 - accuracy: 0.4980 - val_loss: 7.6206 - val_accuracy: 0.5059
 19%|█▊        | 20/108 [2:05:53<13:05:47, 535.77s/it]Found 18697 images belonging to 2 classes.
Found 6303 images belonging to 2 classes.
Epoch 1/10
1169/1169 [==============================] - 53s 45ms/step - loss: 0.5583 - accuracy: 0.7087 - val_loss: 0.4631 - val_accuracy: 0.7863
Epoch 2/10
1169/1169 [==============================] - 53s 45ms/step - loss: 0.4226 - accuracy: 0.8037 - val_loss: 0.3939 - val_accuracy: 0.8196
Epoch 3/10
1169/1169 [==============================] - 49s 42ms/step - loss: 0.3408 - accuracy: 0.8491 - val_loss: 0.3634 - val_accuracy: 0.8363
Epoch 4/10
1169/1169 [==============================] - 48s 41ms/step - loss: 0.2667 - accuracy: 0.8848 - val_loss: 0.3807 - val_accuracy: 0.8369
Epoch 5/10
1169/1169 [==============================] - 48s 41ms/step - loss: 0.1942 - accuracy: 0.9224 - val_loss: 0.3950 - val_accuracy: 0.8459
Epoch 6/10
1169/1169 [==============================] - 48s 41ms/step - loss: 0.1405 - accuracy: 0.9448 - val_loss: 0.4448 - val_accuracy: 0.8344
Epoch 7/10
1169/1169 [==============================] - 48s 41ms/step - loss: 0.0977 - accuracy: 0.9618 - val_loss: 0.5406 - val_accuracy: 0.8237
Epoch 8/10
1169/1169 [==============================] - 49s 42ms/step - loss: 0.0832 - accuracy: 0.9691 - val_loss: 0.5153 - val_accuracy: 0.8467
Epoch 9/10
1169/1169 [==============================] - 49s 42ms/step - loss: 0.0602 - accuracy: 0.9774 - val_loss: 0.6358 - val_accuracy: 0.8412
Epoch 10/10
1169/1169 [==============================] - 48s 41ms/step - loss: 0.0590 - accuracy: 0.9797 - val_loss: 0.6363 - val_accuracy: 0.8471
 19%|█▉        | 21/108 [2:14:06<12:38:35, 523.17s/it]Found 18697 images belonging to 2 classes.
Found 6303 images belonging to 2 classes.
Epoch 1/10
1169/1169 [==============================] - 82s 70ms/step - loss: 7.7367 - accuracy: 0.4979 - val_loss: 7.6208 - val_accuracy: 0.5059
Epoch 2/10
1169/1169 [==============================] - 82s 70ms/step - loss: 7.7437 - accuracy: 0.4980 - val_loss: 7.6208 - val_accuracy: 0.5059
Epoch 3/10
1169/1169 [==============================] - 80s 68ms/step - loss: 7.7437 - accuracy: 0.4980 - val_loss: 7.6208 - val_accuracy: 0.5059
Epoch 4/10
1169/1169 [==============================] - 81s 69ms/step - loss: 7.7431 - accuracy: 0.4980 - val_loss: 7.6208 - val_accuracy: 0.5059
Epoch 5/10
1169/1169 [==============================] - 81s 70ms/step - loss: 7.7431 - accuracy: 0.4980 - val_loss: 7.6215 - val_accuracy: 0.5059
Epoch 6/10
1169/1169 [==============================] - 81s 69ms/step - loss: 7.7444 - accuracy: 0.4980 - val_loss: 7.6210 - val_accuracy: 0.5059
Epoch 7/10
1169/1169 [==============================] - 80s 69ms/step - loss: 7.7437 - accuracy: 0.4980 - val_loss: 7.6210 - val_accuracy: 0.5059
Epoch 8/10
1169/1169 [==============================] - 80s 68ms/step - loss: 7.7424 - accuracy: 0.4980 - val_loss: 7.6210 - val_accuracy: 0.5059
Epoch 9/10
1169/1169 [==============================] - 81s 69ms/step - loss: 7.7431 - accuracy: 0.4980 - val_loss: 7.6205 - val_accuracy: 0.5059
Epoch 10/10
1169/1169 [==============================] - 83s 71ms/step - loss: 7.7431 - accuracy: 0.4980 - val_loss: 7.6205 - val_accuracy: 0.5059
 20%|██        | 22/108 [2:27:38<14:34:03, 609.80s/it]Found 18697 images belonging to 2 classes.
Found 6303 images belonging to 2 classes.
Epoch 1/10
1169/1169 [==============================] - 52s 44ms/step - loss: 7.7386 - accuracy: 0.4980 - val_loss: 7.6206 - val_accuracy: 0.5059
Epoch 2/10
1169/1169 [==============================] - 52s 45ms/step - loss: 7.7437 - accuracy: 0.4980 - val_loss: 7.6206 - val_accuracy: 0.5059
Epoch 3/10
1169/1169 [==============================] - 54s 46ms/step - loss: 7.7431 - accuracy: 0.4980 - val_loss: 7.6211 - val_accuracy: 0.5059
Epoch 4/10
1169/1169 [==============================] - 53s 45ms/step - loss: 7.7431 - accuracy: 0.4980 - val_loss: 7.6211 - val_accuracy: 0.5059
Epoch 5/10
1169/1169 [==============================] - 53s 45ms/step - loss: 7.7431 - accuracy: 0.4980 - val_loss: 7.6211 - val_accuracy: 0.5059
Epoch 6/10
1169/1169 [==============================] - 52s 45ms/step - loss: 7.7437 - accuracy: 0.4980 - val_loss: 7.6211 - val_accuracy: 0.5059
Epoch 7/10
1169/1169 [==============================] - 53s 45ms/step - loss: 7.7444 - accuracy: 0.4980 - val_loss: 7.6211 - val_accuracy: 0.5059
Epoch 8/10
1169/1169 [==============================] - 53s 45ms/step - loss: 7.7424 - accuracy: 0.4980 - val_loss: 7.6211 - val_accuracy: 0.5059
Epoch 9/10
1169/1169 [==============================] - 53s 45ms/step - loss: 7.7444 - accuracy: 0.4980 - val_loss: 7.6211 - val_accuracy: 0.5059
Epoch 10/10
1169/1169 [==============================] - 53s 45ms/step - loss: 7.7418 - accuracy: 0.4980 - val_loss: 7.6211 - val_accuracy: 0.5059
 21%|██▏       | 23/108 [2:36:26<13:49:03, 585.22s/it]Found 18697 images belonging to 2 classes.
Found 6303 images belonging to 2 classes.
Epoch 1/10
1169/1169 [==============================] - 49s 42ms/step - loss: 0.5852 - accuracy: 0.6878 - val_loss: 0.5089 - val_accuracy: 0.7490
Epoch 2/10
1169/1169 [==============================] - 48s 41ms/step - loss: 0.4604 - accuracy: 0.7809 - val_loss: 0.4339 - val_accuracy: 0.8018
Epoch 3/10
1169/1169 [==============================] - 48s 41ms/step - loss: 0.3903 - accuracy: 0.8225 - val_loss: 0.3984 - val_accuracy: 0.8183
Epoch 4/10
1169/1169 [==============================] - 49s 41ms/step - loss: 0.3291 - accuracy: 0.8574 - val_loss: 0.3994 - val_accuracy: 0.8187
Epoch 5/10
1169/1169 [==============================] - 48s 41ms/step - loss: 0.2604 - accuracy: 0.8907 - val_loss: 0.4006 - val_accuracy: 0.8271
Epoch 6/10
1169/1169 [==============================] - 47s 40ms/step - loss: 0.1981 - accuracy: 0.9171 - val_loss: 0.4307 - val_accuracy: 0.8315
Epoch 7/10
1169/1169 [==============================] - 47s 41ms/step - loss: 0.1439 - accuracy: 0.9428 - val_loss: 0.4799 - val_accuracy: 0.8266
Epoch 8/10
1169/1169 [==============================] - 48s 41ms/step - loss: 0.1051 - accuracy: 0.9587 - val_loss: 0.6242 - val_accuracy: 0.8239
Epoch 9/10
1169/1169 [==============================] - 49s 42ms/step - loss: 0.0857 - accuracy: 0.9668 - val_loss: 0.5578 - val_accuracy: 0.8333
Epoch 10/10
1169/1169 [==============================] - 48s 41ms/step - loss: 0.0647 - accuracy: 0.9765 - val_loss: 0.6678 - val_accuracy: 0.8386
 22%|██▏       | 24/108 [2:44:29<12:56:23, 554.56s/it]Found 18697 images belonging to 2 classes.
Found 6303 images belonging to 2 classes.
Epoch 1/10
1169/1169 [==============================] - 115s 98ms/step - loss: 7.7370 - accuracy: 0.4981 - val_loss: 7.6200 - val_accuracy: 0.5059
Epoch 2/10
1169/1169 [==============================] - 114s 98ms/step - loss: 7.7437 - accuracy: 0.4980 - val_loss: 7.6200 - val_accuracy: 0.5059
Epoch 3/10
1169/1169 [==============================] - 116s 99ms/step - loss: 7.7424 - accuracy: 0.4980 - val_loss: 7.6206 - val_accuracy: 0.5059
Epoch 4/10
1169/1169 [==============================] - 117s 100ms/step - loss: 7.7437 - accuracy: 0.4980 - val_loss: 7.6206 - val_accuracy: 0.5059
Epoch 5/10
1169/1169 [==============================] - 107s 91ms/step - loss: 7.7418 - accuracy: 0.4980 - val_loss: 7.6206 - val_accuracy: 0.5059
Epoch 6/10
1169/1169 [==============================] - 107s 91ms/step - loss: 7.7424 - accuracy: 0.4980 - val_loss: 7.6206 - val_accuracy: 0.5059
Epoch 7/10
1169/1169 [==============================] - 107s 91ms/step - loss: 7.7444 - accuracy: 0.4980 - val_loss: 7.6206 - val_accuracy: 0.5059
Epoch 8/10
1169/1169 [==============================] - 109s 94ms/step - loss: 7.7444 - accuracy: 0.4980 - val_loss: 7.6206 - val_accuracy: 0.5059
Epoch 9/10
1169/1169 [==============================] - 110s 94ms/step - loss: 7.7437 - accuracy: 0.4980 - val_loss: 7.6206 - val_accuracy: 0.5059
Epoch 10/10
1169/1169 [==============================] - 110s 94ms/step - loss: 7.7450 - accuracy: 0.4980 - val_loss: 7.6206 - val_accuracy: 0.5059
 23%|██▎       | 25/108 [3:03:01<16:38:21, 721.71s/it]Found 18697 images belonging to 2 classes.
Found 6303 images belonging to 2 classes.
Epoch 1/10
1169/1169 [==============================] - 62s 53ms/step - loss: 0.6415 - accuracy: 0.6412 - val_loss: 0.5039 - val_accuracy: 0.7598
Epoch 2/10
1169/1169 [==============================] - 61s 52ms/step - loss: 0.4668 - accuracy: 0.7752 - val_loss: 0.4038 - val_accuracy: 0.8139
Epoch 3/10
1169/1169 [==============================] - 60s 51ms/step - loss: 0.3693 - accuracy: 0.8330 - val_loss: 0.3676 - val_accuracy: 0.8331
Epoch 4/10
1169/1169 [==============================] - 60s 51ms/step - loss: 0.2886 - accuracy: 0.8745 - val_loss: 0.3587 - val_accuracy: 0.8426
Epoch 5/10
1169/1169 [==============================] - 60s 51ms/step - loss: 0.2072 - accuracy: 0.9138 - val_loss: 0.4331 - val_accuracy: 0.8394
Epoch 6/10
1169/1169 [==============================] - 59s 51ms/step - loss: 0.1451 - accuracy: 0.9414 - val_loss: 0.4161 - val_accuracy: 0.8467
Epoch 7/10
1169/1169 [==============================] - 60s 52ms/step - loss: 0.0955 - accuracy: 0.9643 - val_loss: 0.5156 - val_accuracy: 0.8442
Epoch 8/10
1169/1169 [==============================] - 59s 51ms/step - loss: 0.0700 - accuracy: 0.9748 - val_loss: 0.5795 - val_accuracy: 0.8559
Epoch 9/10
1169/1169 [==============================] - 59s 50ms/step - loss: 0.0565 - accuracy: 0.9803 - val_loss: 0.7255 - val_accuracy: 0.8394
Epoch 10/10
1169/1169 [==============================] - 59s 50ms/step - loss: 0.0503 - accuracy: 0.9831 - val_loss: 0.6395 - val_accuracy: 0.8493
 24%|██▍       | 26/108 [3:13:02<15:36:41, 685.39s/it]Found 18697 images belonging to 2 classes.
Found 6303 images belonging to 2 classes.
Epoch 1/10
1169/1169 [==============================] - 52s 45ms/step - loss: 0.5690 - accuracy: 0.7055 - val_loss: 0.4722 - val_accuracy: 0.7750
Epoch 2/10
1169/1169 [==============================] - 52s 45ms/step - loss: 0.4285 - accuracy: 0.8029 - val_loss: 0.4125 - val_accuracy: 0.8087
Epoch 3/10
1169/1169 [==============================] - 52s 44ms/step - loss: 0.3550 - accuracy: 0.8438 - val_loss: 0.3770 - val_accuracy: 0.8304
Epoch 4/10
1169/1169 [==============================] - 52s 44ms/step - loss: 0.2875 - accuracy: 0.8756 - val_loss: 0.4221 - val_accuracy: 0.8226
Epoch 5/10
1169/1169 [==============================] - 51s 44ms/step - loss: 0.2167 - accuracy: 0.9101 - val_loss: 0.3755 - val_accuracy: 0.8361
Epoch 6/10
1169/1169 [==============================] - 51s 44ms/step - loss: 0.1529 - accuracy: 0.9397 - val_loss: 0.4859 - val_accuracy: 0.8383
Epoch 7/10
1169/1169 [==============================] - 51s 44ms/step - loss: 0.1201 - accuracy: 0.9523 - val_loss: 0.4910 - val_accuracy: 0.8459
Epoch 8/10
1169/1169 [==============================] - 51s 44ms/step - loss: 0.0886 - accuracy: 0.9682 - val_loss: 0.6254 - val_accuracy: 0.8293
Epoch 9/10
1169/1169 [==============================] - 51s 44ms/step - loss: 0.0766 - accuracy: 0.9723 - val_loss: 0.6445 - val_accuracy: 0.8337
Epoch 10/10
1169/1169 [==============================] - 56s 48ms/step - loss: 0.0650 - accuracy: 0.9760 - val_loss: 0.6212 - val_accuracy: 0.8377
 25%|██▌       | 27/108 [3:21:43<14:18:42, 636.08s/it]Found 18697 images belonging to 2 classes.
Found 6303 images belonging to 2 classes.
Epoch 1/10
1169/1169 [==============================] - 94s 80ms/step - loss: 7.7373 - accuracy: 0.4978 - val_loss: 7.6210 - val_accuracy: 0.5059
Epoch 2/10
1169/1169 [==============================] - 93s 80ms/step - loss: 7.7424 - accuracy: 0.4980 - val_loss: 7.6203 - val_accuracy: 0.5059
Epoch 3/10
1169/1169 [==============================] - 93s 80ms/step - loss: 7.7418 - accuracy: 0.4980 - val_loss: 7.6203 - val_accuracy: 0.5059
Epoch 4/10
1169/1169 [==============================] - 94s 80ms/step - loss: 7.7437 - accuracy: 0.4980 - val_loss: 7.6201 - val_accuracy: 0.5059
Epoch 5/10
1169/1169 [==============================] - 93s 80ms/step - loss: 7.7431 - accuracy: 0.4980 - val_loss: 7.6201 - val_accuracy: 0.5059
Epoch 6/10
1169/1169 [==============================] - 93s 80ms/step - loss: 7.7418 - accuracy: 0.4980 - val_loss: 7.6201 - val_accuracy: 0.5059
Epoch 7/10
1169/1169 [==============================] - 93s 80ms/step - loss: 7.7437 - accuracy: 0.4980 - val_loss: 7.6201 - val_accuracy: 0.5059
Epoch 8/10
1169/1169 [==============================] - 94s 80ms/step - loss: 7.7431 - accuracy: 0.4980 - val_loss: 7.6203 - val_accuracy: 0.5059
Epoch 9/10
1169/1169 [==============================] - 94s 81ms/step - loss: 7.7437 - accuracy: 0.4980 - val_loss: 7.6205 - val_accuracy: 0.5059
Epoch 10/10
1169/1169 [==============================] - 94s 80ms/step - loss: 7.7437 - accuracy: 0.4980 - val_loss: 7.6205 - val_accuracy: 0.5059
 26%|██▌       | 28/108 [3:37:20<16:08:32, 726.40s/it]Found 18697 images belonging to 2 classes.
Found 6303 images belonging to 2 classes.
Epoch 1/10
1169/1169 [==============================] - 52s 44ms/step - loss: 0.6221 - accuracy: 0.6583 - val_loss: 0.5313 - val_accuracy: 0.7287
Epoch 2/10
1169/1169 [==============================] - 52s 44ms/step - loss: 0.4821 - accuracy: 0.7693 - val_loss: 0.4257 - val_accuracy: 0.8004
Epoch 3/10
1169/1169 [==============================] - 48s 41ms/step - loss: 0.3916 - accuracy: 0.8238 - val_loss: 0.3803 - val_accuracy: 0.8279
Epoch 4/10
1169/1169 [==============================] - 48s 41ms/step - loss: 0.3131 - accuracy: 0.8618 - val_loss: 0.3399 - val_accuracy: 0.8574
Epoch 5/10
1169/1169 [==============================] - 48s 41ms/step - loss: 0.2334 - accuracy: 0.8993 - val_loss: 0.3454 - val_accuracy: 0.8528
Epoch 6/10
1169/1169 [==============================] - 48s 41ms/step - loss: 0.1594 - accuracy: 0.9366 - val_loss: 0.5585 - val_accuracy: 0.8206
Epoch 7/10
1169/1169 [==============================] - 48s 41ms/step - loss: 0.1074 - accuracy: 0.9595 - val_loss: 0.4842 - val_accuracy: 0.8486
Epoch 8/10
1169/1169 [==============================] - 48s 41ms/step - loss: 0.0760 - accuracy: 0.9722 - val_loss: 0.5841 - val_accuracy: 0.8390
Epoch 9/10
1169/1169 [==============================] - 48s 41ms/step - loss: 0.0590 - accuracy: 0.9772 - val_loss: 0.7033 - val_accuracy: 0.8236
Epoch 10/10
1169/1169 [==============================] - 47s 40ms/step - loss: 0.0532 - accuracy: 0.9814 - val_loss: 0.7102 - val_accuracy: 0.8298
 27%|██▋       | 29/108 [3:45:29<14:22:37, 655.15s/it]Found 18697 images belonging to 2 classes.
Found 6303 images belonging to 2 classes.
Epoch 1/10
1169/1169 [==============================] - 45s 38ms/step - loss: 0.6166 - accuracy: 0.6488 - val_loss: 0.5492 - val_accuracy: 0.7247
Epoch 2/10
1169/1169 [==============================] - 44s 38ms/step - loss: 0.4942 - accuracy: 0.7587 - val_loss: 0.4556 - val_accuracy: 0.7895
Epoch 3/10
1169/1169 [==============================] - 46s 40ms/step - loss: 0.4207 - accuracy: 0.8068 - val_loss: 0.4348 - val_accuracy: 0.7977
Epoch 4/10
1169/1169 [==============================] - 49s 42ms/step - loss: 0.3567 - accuracy: 0.8415 - val_loss: 0.4056 - val_accuracy: 0.8085
Epoch 5/10
1169/1169 [==============================] - 49s 42ms/step - loss: 0.2990 - accuracy: 0.8705 - val_loss: 0.3642 - val_accuracy: 0.8398
Epoch 6/10
1169/1169 [==============================] - 49s 42ms/step - loss: 0.2324 - accuracy: 0.9008 - val_loss: 0.4266 - val_accuracy: 0.8245
Epoch 7/10
1169/1169 [==============================] - 50s 42ms/step - loss: 0.1725 - accuracy: 0.9298 - val_loss: 0.4622 - val_accuracy: 0.8255
Epoch 8/10
1169/1169 [==============================] - 48s 41ms/step - loss: 0.1154 - accuracy: 0.9546 - val_loss: 0.5180 - val_accuracy: 0.8264
Epoch 9/10
1169/1169 [==============================] - 47s 41ms/step - loss: 0.0930 - accuracy: 0.9646 - val_loss: 0.6272 - val_accuracy: 0.8293
Epoch 10/10
1169/1169 [==============================] - 47s 41ms/step - loss: 0.0789 - accuracy: 0.9699 - val_loss: 0.6370 - val_accuracy: 0.8328
 28%|██▊       | 30/108 [3:53:24<13:01:39, 601.27s/it]Found 18697 images belonging to 2 classes.
Found 6303 images belonging to 2 classes.
Epoch 1/10
1169/1169 [==============================] - 108s 93ms/step - loss: 7.7349 - accuracy: 0.4982 - val_loss: 7.6213 - val_accuracy: 0.5059
Epoch 2/10
1169/1169 [==============================] - 107s 92ms/step - loss: 7.7424 - accuracy: 0.4980 - val_loss: 7.6205 - val_accuracy: 0.5059
Epoch 3/10
1169/1169 [==============================] - 106s 90ms/step - loss: 7.7437 - accuracy: 0.4980 - val_loss: 7.6205 - val_accuracy: 0.5059
Epoch 4/10
1169/1169 [==============================] - 106s 90ms/step - loss: 7.7437 - accuracy: 0.4980 - val_loss: 7.6205 - val_accuracy: 0.5059
Epoch 5/10
1169/1169 [==============================] - 104s 89ms/step - loss: 7.7424 - accuracy: 0.4980 - val_loss: 7.6205 - val_accuracy: 0.5059
Epoch 6/10
1169/1169 [==============================] - 107s 91ms/step - loss: 7.7418 - accuracy: 0.4980 - val_loss: 7.6205 - val_accuracy: 0.5059
Epoch 7/10
1169/1169 [==============================] - 109s 93ms/step - loss: 7.7444 - accuracy: 0.4980 - val_loss: 7.6205 - val_accuracy: 0.5059
Epoch 8/10
1169/1169 [==============================] - 109s 93ms/step - loss: 7.7437 - accuracy: 0.4980 - val_loss: 7.6208 - val_accuracy: 0.5059
Epoch 9/10
1169/1169 [==============================] - 109s 93ms/step - loss: 7.7424 - accuracy: 0.4980 - val_loss: 7.6205 - val_accuracy: 0.5059
Epoch 10/10
1169/1169 [==============================] - 113s 97ms/step - loss: 7.7431 - accuracy: 0.4980 - val_loss: 7.6205 - val_accuracy: 0.5059
 29%|██▊       | 31/108 [4:11:24<15:55:50, 744.81s/it]Found 18697 images belonging to 2 classes.
Found 6303 images belonging to 2 classes.
Epoch 1/10
1169/1169 [==============================] - 64s 55ms/step - loss: 7.7407 - accuracy: 0.4975 - val_loss: 7.6208 - val_accuracy: 0.5059
Epoch 2/10
1169/1169 [==============================] - 64s 55ms/step - loss: 7.7424 - accuracy: 0.4980 - val_loss: 7.6210 - val_accuracy: 0.5059
Epoch 3/10
1169/1169 [==============================] - 63s 54ms/step - loss: 7.7437 - accuracy: 0.4980 - val_loss: 7.6210 - val_accuracy: 0.5059
Epoch 4/10
1169/1169 [==============================] - 61s 52ms/step - loss: 7.7444 - accuracy: 0.4980 - val_loss: 7.6201 - val_accuracy: 0.5059
Epoch 5/10
1169/1169 [==============================] - 61s 52ms/step - loss: 7.7444 - accuracy: 0.4980 - val_loss: 7.6205 - val_accuracy: 0.5059
Epoch 6/10
1169/1169 [==============================] - 60s 51ms/step - loss: 7.7437 - accuracy: 0.4980 - val_loss: 7.6208 - val_accuracy: 0.5059
Epoch 7/10
1169/1169 [==============================] - 59s 50ms/step - loss: 7.7444 - accuracy: 0.4980 - val_loss: 7.6210 - val_accuracy: 0.5059
Epoch 8/10
1169/1169 [==============================] - 61s 52ms/step - loss: 7.7431 - accuracy: 0.4980 - val_loss: 7.6210 - val_accuracy: 0.5059
Epoch 9/10
1169/1169 [==============================] - 62s 53ms/step - loss: 7.7444 - accuracy: 0.4980 - val_loss: 7.6205 - val_accuracy: 0.5059
Epoch 10/10
1169/1169 [==============================] - 61s 52ms/step - loss: 7.7437 - accuracy: 0.4980 - val_loss: 7.6208 - val_accuracy: 0.5059
 30%|██▉       | 32/108 [4:21:42<14:55:16, 706.80s/it]Found 18697 images belonging to 2 classes.
Found 6303 images belonging to 2 classes.
Epoch 1/10
1169/1169 [==============================] - 55s 47ms/step - loss: 0.6255 - accuracy: 0.6565 - val_loss: 0.4937 - val_accuracy: 0.7536
Epoch 2/10
1169/1169 [==============================] - 56s 48ms/step - loss: 0.4695 - accuracy: 0.7772 - val_loss: 0.4300 - val_accuracy: 0.7955
Epoch 3/10
1169/1169 [==============================] - 55s 47ms/step - loss: 0.3883 - accuracy: 0.8236 - val_loss: 0.3714 - val_accuracy: 0.8333
Epoch 4/10
1169/1169 [==============================] - 55s 47ms/step - loss: 0.3125 - accuracy: 0.8629 - val_loss: 0.4083 - val_accuracy: 0.8152
Epoch 5/10
1169/1169 [==============================] - 54s 46ms/step - loss: 0.2426 - accuracy: 0.8969 - val_loss: 0.4017 - val_accuracy: 0.8358
Epoch 6/10
1169/1169 [==============================] - 54s 46ms/step - loss: 0.1742 - accuracy: 0.9277 - val_loss: 0.4539 - val_accuracy: 0.8385
Epoch 7/10
1169/1169 [==============================] - 54s 46ms/step - loss: 0.1283 - accuracy: 0.9502 - val_loss: 0.6586 - val_accuracy: 0.8074
Epoch 8/10
1169/1169 [==============================] - 50s 43ms/step - loss: 0.0923 - accuracy: 0.9644 - val_loss: 0.5245 - val_accuracy: 0.8333
Epoch 9/10
1169/1169 [==============================] - 52s 45ms/step - loss: 0.0808 - accuracy: 0.9698 - val_loss: 0.5841 - val_accuracy: 0.8266
Epoch 10/10
1169/1169 [==============================] - 51s 44ms/step - loss: 0.0701 - accuracy: 0.9761 - val_loss: 0.7155 - val_accuracy: 0.8198
 31%|███       | 33/108 [4:30:39<13:39:42, 655.77s/it]Found 18697 images belonging to 2 classes.
Found 6303 images belonging to 2 classes.
Epoch 1/10
1169/1169 [==============================] - 89s 76ms/step - loss: 7.6317 - accuracy: 0.5019 - val_loss: 7.7581 - val_accuracy: 0.4941
Epoch 2/10
1169/1169 [==============================] - 85s 73ms/step - loss: 7.6368 - accuracy: 0.5020 - val_loss: 7.7581 - val_accuracy: 0.4941
Epoch 3/10
1169/1169 [==============================] - 84s 72ms/step - loss: 7.6349 - accuracy: 0.5020 - val_loss: 7.7581 - val_accuracy: 0.4941
Epoch 4/10
1169/1169 [==============================] - 87s 74ms/step - loss: 7.6362 - accuracy: 0.5020 - val_loss: 7.7581 - val_accuracy: 0.4941
Epoch 5/10
1169/1169 [==============================] - 86s 74ms/step - loss: 7.6349 - accuracy: 0.5020 - val_loss: 7.7574 - val_accuracy: 0.4941
Epoch 6/10
1169/1169 [==============================] - 86s 73ms/step - loss: 7.6362 - accuracy: 0.5020 - val_loss: 7.7574 - val_accuracy: 0.4941
Epoch 7/10
1169/1169 [==============================] - 88s 76ms/step - loss: 7.6368 - accuracy: 0.5020 - val_loss: 7.7574 - val_accuracy: 0.4941
Epoch 8/10
1169/1169 [==============================] - 88s 75ms/step - loss: 7.6349 - accuracy: 0.5020 - val_loss: 7.7574 - val_accuracy: 0.4941
Epoch 9/10
1169/1169 [==============================] - 87s 75ms/step - loss: 7.6356 - accuracy: 0.5020 - val_loss: 7.7579 - val_accuracy: 0.4941
Epoch 10/10
1169/1169 [==============================] - 90s 77ms/step - loss: 7.6356 - accuracy: 0.5020 - val_loss: 7.7579 - val_accuracy: 0.4941
 31%|███▏      | 34/108 [4:45:11<14:48:47, 720.65s/it]Found 18697 images belonging to 2 classes.
Found 6303 images belonging to 2 classes.
Epoch 1/10
1169/1169 [==============================] - 51s 44ms/step - loss: 7.6302 - accuracy: 0.5021 - val_loss: 7.7582 - val_accuracy: 0.4941
Epoch 2/10
1169/1169 [==============================] - 50s 43ms/step - loss: 7.6368 - accuracy: 0.5020 - val_loss: 7.7582 - val_accuracy: 0.4941
Epoch 3/10
1169/1169 [==============================] - 50s 43ms/step - loss: 7.6349 - accuracy: 0.5020 - val_loss: 7.7582 - val_accuracy: 0.4941
Epoch 4/10
1169/1169 [==============================] - 50s 43ms/step - loss: 7.6349 - accuracy: 0.5020 - val_loss: 7.7574 - val_accuracy: 0.4941
Epoch 5/10
1169/1169 [==============================] - 51s 43ms/step - loss: 7.6356 - accuracy: 0.5020 - val_loss: 7.7579 - val_accuracy: 0.4941
Epoch 6/10
1169/1169 [==============================] - 50s 43ms/step - loss: 7.6356 - accuracy: 0.5020 - val_loss: 7.7579 - val_accuracy: 0.4941
Epoch 7/10
1169/1169 [==============================] - 50s 43ms/step - loss: 7.6368 - accuracy: 0.5020 - val_loss: 7.7574 - val_accuracy: 0.4941
Epoch 8/10
1169/1169 [==============================] - 50s 43ms/step - loss: 7.6349 - accuracy: 0.5020 - val_loss: 7.7577 - val_accuracy: 0.4941
Epoch 9/10
1169/1169 [==============================] - 49s 42ms/step - loss: 7.6356 - accuracy: 0.5020 - val_loss: 7.7577 - val_accuracy: 0.4941
Epoch 10/10
1169/1169 [==============================] - 49s 42ms/step - loss: 7.6362 - accuracy: 0.5020 - val_loss: 7.7579 - val_accuracy: 0.4941
 32%|███▏      | 35/108 [4:53:31<13:16:17, 654.48s/it]Found 18697 images belonging to 2 classes.
Found 6303 images belonging to 2 classes.
Epoch 1/10
1169/1169 [==============================] - 48s 41ms/step - loss: 0.6081 - accuracy: 0.6667 - val_loss: 0.5150 - val_accuracy: 0.7449
Epoch 2/10
1169/1169 [==============================] - 48s 41ms/step - loss: 0.4729 - accuracy: 0.7744 - val_loss: 0.4487 - val_accuracy: 0.7885
Epoch 3/10
1169/1169 [==============================] - 46s 39ms/step - loss: 0.4016 - accuracy: 0.8185 - val_loss: 0.4082 - val_accuracy: 0.8120
Epoch 4/10
1169/1169 [==============================] - 46s 39ms/step - loss: 0.3382 - accuracy: 0.8484 - val_loss: 0.3934 - val_accuracy: 0.8255
Epoch 5/10
1169/1169 [==============================] - 46s 39ms/step - loss: 0.2615 - accuracy: 0.8877 - val_loss: 0.4141 - val_accuracy: 0.8253
Epoch 6/10
1169/1169 [==============================] - 46s 40ms/step - loss: 0.1933 - accuracy: 0.9190 - val_loss: 0.4321 - val_accuracy: 0.8321
Epoch 7/10
1169/1169 [==============================] - 46s 40ms/step - loss: 0.1385 - accuracy: 0.9445 - val_loss: 0.4882 - val_accuracy: 0.8226
Epoch 8/10
1169/1169 [==============================] - 45s 38ms/step - loss: 0.0989 - accuracy: 0.9603 - val_loss: 0.6350 - val_accuracy: 0.8126
Epoch 9/10
1169/1169 [==============================] - 45s 39ms/step - loss: 0.0888 - accuracy: 0.9667 - val_loss: 0.6800 - val_accuracy: 0.8175
Epoch 10/10
1169/1169 [==============================] - 47s 40ms/step - loss: 0.0756 - accuracy: 0.9706 - val_loss: 0.7287 - val_accuracy: 0.8142
 33%|███▎      | 36/108 [5:01:14<11:56:33, 597.13s/it]Found 18697 images belonging to 2 classes.
Found 6303 images belonging to 2 classes.
Epoch 1/15
1169/1169 [==============================] - 102s 88ms/step - loss: 7.7386 - accuracy: 0.4979 - val_loss: 7.6213 - val_accuracy: 0.5059
Epoch 2/15
1169/1169 [==============================] - 100s 86ms/step - loss: 7.7437 - accuracy: 0.4980 - val_loss: 7.6205 - val_accuracy: 0.5059
Epoch 3/15
1169/1169 [==============================] - 101s 86ms/step - loss: 7.7437 - accuracy: 0.4980 - val_loss: 7.6211 - val_accuracy: 0.5059
Epoch 4/15
1169/1169 [==============================] - 99s 85ms/step - loss: 7.7437 - accuracy: 0.4980 - val_loss: 7.6211 - val_accuracy: 0.5059
Epoch 5/15
1169/1169 [==============================] - 99s 85ms/step - loss: 7.7437 - accuracy: 0.4980 - val_loss: 7.6205 - val_accuracy: 0.5059
Epoch 6/15
1169/1169 [==============================] - 99s 85ms/step - loss: 7.7424 - accuracy: 0.4980 - val_loss: 7.6205 - val_accuracy: 0.5059
Epoch 7/15
1169/1169 [==============================] - 97s 83ms/step - loss: 7.7431 - accuracy: 0.4980 - val_loss: 7.6205 - val_accuracy: 0.5059
Epoch 8/15
1169/1169 [==============================] - 99s 84ms/step - loss: 7.7450 - accuracy: 0.4980 - val_loss: 7.6205 - val_accuracy: 0.5059
Epoch 9/15
1169/1169 [==============================] - 98s 84ms/step - loss: 7.7424 - accuracy: 0.4980 - val_loss: 7.6205 - val_accuracy: 0.5059
Epoch 10/15
1169/1169 [==============================] - 97s 83ms/step - loss: 7.7444 - accuracy: 0.4980 - val_loss: 7.6206 - val_accuracy: 0.5059
Epoch 11/15
1169/1169 [==============================] - 98s 84ms/step - loss: 7.7431 - accuracy: 0.4980 - val_loss: 7.6206 - val_accuracy: 0.5059
Epoch 12/15
1169/1169 [==============================] - 99s 84ms/step - loss: 7.7437 - accuracy: 0.4980 - val_loss: 7.6208 - val_accuracy: 0.5059
Epoch 13/15
1169/1169 [==============================] - 97s 83ms/step - loss: 7.7444 - accuracy: 0.4980 - val_loss: 7.6208 - val_accuracy: 0.5059
Epoch 14/15
1169/1169 [==============================] - 98s 84ms/step - loss: 7.7431 - accuracy: 0.4980 - val_loss: 7.6208 - val_accuracy: 0.5059
Epoch 15/15
1169/1169 [==============================] - 97s 83ms/step - loss: 7.7424 - accuracy: 0.4980 - val_loss: 7.6206 - val_accuracy: 0.5059
 34%|███▍      | 37/108 [5:25:55<17:00:18, 862.24s/it]Found 18697 images belonging to 2 classes.
Found 6303 images belonging to 2 classes.
Epoch 1/15
1169/1169 [==============================] - 54s 46ms/step - loss: 7.7392 - accuracy: 0.4979 - val_loss: 7.6205 - val_accuracy: 0.5059
Epoch 2/15
1169/1169 [==============================] - 54s 46ms/step - loss: 7.7444 - accuracy: 0.4980 - val_loss: 7.6206 - val_accuracy: 0.5059
Epoch 3/15
1169/1169 [==============================] - 54s 46ms/step - loss: 7.7431 - accuracy: 0.4980 - val_loss: 7.6210 - val_accuracy: 0.5059
Epoch 4/15
1169/1169 [==============================] - 54s 46ms/step - loss: 7.7444 - accuracy: 0.4980 - val_loss: 7.6213 - val_accuracy: 0.5059
Epoch 5/15
1169/1169 [==============================] - 54s 46ms/step - loss: 7.7456 - accuracy: 0.4980 - val_loss: 7.6213 - val_accuracy: 0.5059
Epoch 6/15
1169/1169 [==============================] - 54s 46ms/step - loss: 7.7424 - accuracy: 0.4980 - val_loss: 7.6206 - val_accuracy: 0.5059
Epoch 7/15
1169/1169 [==============================] - 53s 46ms/step - loss: 7.7444 - accuracy: 0.4980 - val_loss: 7.6208 - val_accuracy: 0.5059
Epoch 8/15
1169/1169 [==============================] - 54s 46ms/step - loss: 7.7418 - accuracy: 0.4980 - val_loss: 7.6210 - val_accuracy: 0.5059
Epoch 9/15
1169/1169 [==============================] - 54s 46ms/step - loss: 7.7418 - accuracy: 0.4980 - val_loss: 7.6206 - val_accuracy: 0.5059
Epoch 10/15
1169/1169 [==============================] - 53s 45ms/step - loss: 7.7437 - accuracy: 0.4980 - val_loss: 7.6206 - val_accuracy: 0.5059
Epoch 11/15
1169/1169 [==============================] - 53s 45ms/step - loss: 7.7450 - accuracy: 0.4980 - val_loss: 7.6205 - val_accuracy: 0.5059
Epoch 12/15
1169/1169 [==============================] - 53s 46ms/step - loss: 7.7456 - accuracy: 0.4980 - val_loss: 7.6205 - val_accuracy: 0.5059
Epoch 13/15
1169/1169 [==============================] - 53s 45ms/step - loss: 7.7444 - accuracy: 0.4980 - val_loss: 7.6211 - val_accuracy: 0.5059
Epoch 14/15
1169/1169 [==============================] - 53s 46ms/step - loss: 7.7444 - accuracy: 0.4980 - val_loss: 7.6205 - val_accuracy: 0.5059
Epoch 15/15
1169/1169 [==============================] - 53s 46ms/step - loss: 7.7424 - accuracy: 0.4980 - val_loss: 7.6208 - val_accuracy: 0.5059
 35%|███▌      | 38/108 [5:39:19<16:25:39, 844.85s/it]Found 18697 images belonging to 2 classes.
Found 6303 images belonging to 2 classes.
Epoch 1/15
1169/1169 [==============================] - 45s 39ms/step - loss: 0.5667 - accuracy: 0.7064 - val_loss: 0.4575 - val_accuracy: 0.7885
Epoch 2/15
1169/1169 [==============================] - 45s 39ms/step - loss: 0.4296 - accuracy: 0.7981 - val_loss: 0.4112 - val_accuracy: 0.8063
Epoch 3/15
1169/1169 [==============================] - 46s 39ms/step - loss: 0.3535 - accuracy: 0.8440 - val_loss: 0.3681 - val_accuracy: 0.8333
Epoch 4/15
1169/1169 [==============================] - 45s 39ms/step - loss: 0.2792 - accuracy: 0.8781 - val_loss: 0.3459 - val_accuracy: 0.8523
Epoch 5/15
1169/1169 [==============================] - 45s 38ms/step - loss: 0.2134 - accuracy: 0.9097 - val_loss: 0.4097 - val_accuracy: 0.8398
Epoch 6/15
1169/1169 [==============================] - 45s 39ms/step - loss: 0.1481 - accuracy: 0.9400 - val_loss: 0.4125 - val_accuracy: 0.8466
Epoch 7/15
1169/1169 [==============================] - 45s 39ms/step - loss: 0.1058 - accuracy: 0.9588 - val_loss: 0.5375 - val_accuracy: 0.8374
Epoch 8/15
1169/1169 [==============================] - 45s 39ms/step - loss: 0.0851 - accuracy: 0.9667 - val_loss: 0.6131 - val_accuracy: 0.8366
Epoch 9/15
1169/1169 [==============================] - 45s 39ms/step - loss: 0.0625 - accuracy: 0.9768 - val_loss: 0.6335 - val_accuracy: 0.8350
Epoch 10/15
1169/1169 [==============================] - 46s 39ms/step - loss: 0.0512 - accuracy: 0.9813 - val_loss: 0.6701 - val_accuracy: 0.8350
Epoch 11/15
1169/1169 [==============================] - 48s 41ms/step - loss: 0.0513 - accuracy: 0.9821 - val_loss: 0.7051 - val_accuracy: 0.8440
Epoch 12/15
1169/1169 [==============================] - 47s 40ms/step - loss: 0.0452 - accuracy: 0.9836 - val_loss: 0.7579 - val_accuracy: 0.8347
Epoch 13/15
1169/1169 [==============================] - 46s 40ms/step - loss: 0.0425 - accuracy: 0.9846 - val_loss: 0.7716 - val_accuracy: 0.8461
Epoch 14/15
1169/1169 [==============================] - 48s 41ms/step - loss: 0.0481 - accuracy: 0.9838 - val_loss: 0.7275 - val_accuracy: 0.8412
Epoch 15/15
1169/1169 [==============================] - 52s 45ms/step - loss: 0.0376 - accuracy: 0.9868 - val_loss: 0.7653 - val_accuracy: 0.8386
 36%|███▌      | 39/108 [5:50:55<15:19:59, 799.99s/it]Found 18697 images belonging to 2 classes.
Found 6303 images belonging to 2 classes.
Epoch 1/15
1169/1169 [==============================] - 85s 73ms/step - loss: 7.7431 - accuracy: 0.4978 - val_loss: 7.6208 - val_accuracy: 0.5059
Epoch 2/15
1169/1169 [==============================] - 85s 73ms/step - loss: 7.7450 - accuracy: 0.4980 - val_loss: 7.6205 - val_accuracy: 0.5059
Epoch 3/15
1169/1169 [==============================] - 85s 73ms/step - loss: 7.7431 - accuracy: 0.4980 - val_loss: 7.6201 - val_accuracy: 0.5059
Epoch 4/15
1169/1169 [==============================] - 85s 73ms/step - loss: 7.7437 - accuracy: 0.4980 - val_loss: 7.6211 - val_accuracy: 0.5059
Epoch 5/15
1169/1169 [==============================] - 85s 73ms/step - loss: 7.7431 - accuracy: 0.4980 - val_loss: 7.6211 - val_accuracy: 0.5059
Epoch 6/15
1169/1169 [==============================] - 85s 73ms/step - loss: 7.7437 - accuracy: 0.4980 - val_loss: 7.6211 - val_accuracy: 0.5059
Epoch 7/15
1169/1169 [==============================] - 85s 73ms/step - loss: 7.7444 - accuracy: 0.4980 - val_loss: 7.6211 - val_accuracy: 0.5059
Epoch 8/15
1169/1169 [==============================] - 85s 73ms/step - loss: 7.7418 - accuracy: 0.4980 - val_loss: 7.6211 - val_accuracy: 0.5059
Epoch 9/15
1169/1169 [==============================] - 86s 74ms/step - loss: 7.7437 - accuracy: 0.4980 - val_loss: 7.6203 - val_accuracy: 0.5059
Epoch 10/15
1169/1169 [==============================] - 85s 73ms/step - loss: 7.7444 - accuracy: 0.4980 - val_loss: 7.6203 - val_accuracy: 0.5059
Epoch 11/15
1169/1169 [==============================] - 86s 73ms/step - loss: 7.7418 - accuracy: 0.4980 - val_loss: 7.6203 - val_accuracy: 0.5059
Epoch 12/15
1169/1169 [==============================] - 86s 73ms/step - loss: 7.7418 - accuracy: 0.4980 - val_loss: 7.6203 - val_accuracy: 0.5059
Epoch 13/15
1169/1169 [==============================] - 86s 73ms/step - loss: 7.7437 - accuracy: 0.4980 - val_loss: 7.6203 - val_accuracy: 0.5059
Epoch 14/15
1169/1169 [==============================] - 87s 74ms/step - loss: 7.7444 - accuracy: 0.4980 - val_loss: 7.6203 - val_accuracy: 0.5059
Epoch 15/15
1169/1169 [==============================] - 85s 73ms/step - loss: 7.7437 - accuracy: 0.4980 - val_loss: 7.6203 - val_accuracy: 0.5059
 37%|███▋      | 40/108 [6:12:18<17:50:50, 944.86s/it]Found 18697 images belonging to 2 classes.
Found 6303 images belonging to 2 classes.
Epoch 1/15
1169/1169 [==============================] - 50s 43ms/step - loss: 7.6308 - accuracy: 0.5017 - val_loss: 7.7577 - val_accuracy: 0.4941
Epoch 2/15
1169/1169 [==============================] - 50s 42ms/step - loss: 7.6343 - accuracy: 0.5020 - val_loss: 7.7573 - val_accuracy: 0.4941
Epoch 3/15
1169/1169 [==============================] - 48s 41ms/step - loss: 7.6368 - accuracy: 0.5020 - val_loss: 7.7579 - val_accuracy: 0.4941
Epoch 4/15
1169/1169 [==============================] - 48s 41ms/step - loss: 7.6356 - accuracy: 0.5020 - val_loss: 7.7576 - val_accuracy: 0.4941
Epoch 5/15
1169/1169 [==============================] - 48s 41ms/step - loss: 7.6343 - accuracy: 0.5020 - val_loss: 7.7582 - val_accuracy: 0.4941
Epoch 6/15
1169/1169 [==============================] - 48s 41ms/step - loss: 7.6368 - accuracy: 0.5020 - val_loss: 7.7576 - val_accuracy: 0.4941
Epoch 7/15
1169/1169 [==============================] - 47s 41ms/step - loss: 7.6349 - accuracy: 0.5020 - val_loss: 7.7586 - val_accuracy: 0.4941
Epoch 8/15
1169/1169 [==============================] - 48s 41ms/step - loss: 7.6356 - accuracy: 0.5020 - val_loss: 7.7586 - val_accuracy: 0.4941
Epoch 9/15
1169/1169 [==============================] - 47s 40ms/step - loss: 7.6368 - accuracy: 0.5020 - val_loss: 7.7576 - val_accuracy: 0.4941
Epoch 10/15
1169/1169 [==============================] - 47s 40ms/step - loss: 7.6362 - accuracy: 0.5020 - val_loss: 7.7576 - val_accuracy: 0.4941
Epoch 11/15
1169/1169 [==============================] - 47s 40ms/step - loss: 7.6375 - accuracy: 0.5020 - val_loss: 7.7581 - val_accuracy: 0.4941
Epoch 12/15
1169/1169 [==============================] - 47s 40ms/step - loss: 7.6368 - accuracy: 0.5020 - val_loss: 7.7581 - val_accuracy: 0.4941
Epoch 13/15
1169/1169 [==============================] - 47s 40ms/step - loss: 7.6362 - accuracy: 0.5020 - val_loss: 7.7579 - val_accuracy: 0.4941
Epoch 14/15
1169/1169 [==============================] - 47s 40ms/step - loss: 7.6368 - accuracy: 0.5020 - val_loss: 7.7579 - val_accuracy: 0.4941
Epoch 15/15
1169/1169 [==============================] - 47s 40ms/step - loss: 7.6362 - accuracy: 0.5020 - val_loss: 7.7579 - val_accuracy: 0.4941
 38%|███▊      | 41/108 [6:24:13<16:18:15, 876.05s/it]Found 18697 images belonging to 2 classes.
Found 6303 images belonging to 2 classes.
Epoch 1/15
1169/1169 [==============================] - 44s 38ms/step - loss: 0.6021 - accuracy: 0.6683 - val_loss: 0.5001 - val_accuracy: 0.7531
Epoch 2/15
1169/1169 [==============================] - 44s 38ms/step - loss: 0.4741 - accuracy: 0.7748 - val_loss: 0.4274 - val_accuracy: 0.7993
Epoch 3/15
1169/1169 [==============================] - 44s 38ms/step - loss: 0.4042 - accuracy: 0.8136 - val_loss: 0.3912 - val_accuracy: 0.8226
Epoch 4/15
1169/1169 [==============================] - 44s 38ms/step - loss: 0.3400 - accuracy: 0.8516 - val_loss: 0.3796 - val_accuracy: 0.8275
Epoch 5/15
1169/1169 [==============================] - 44s 37ms/step - loss: 0.2788 - accuracy: 0.8823 - val_loss: 0.3879 - val_accuracy: 0.8296
Epoch 6/15
1169/1169 [==============================] - 44s 38ms/step - loss: 0.2128 - accuracy: 0.9113 - val_loss: 0.3849 - val_accuracy: 0.8391
Epoch 7/15
1169/1169 [==============================] - 44s 38ms/step - loss: 0.1654 - accuracy: 0.9345 - val_loss: 0.4603 - val_accuracy: 0.8317
Epoch 8/15
1169/1169 [==============================] - 44s 38ms/step - loss: 0.1152 - accuracy: 0.9532 - val_loss: 0.5349 - val_accuracy: 0.8375
Epoch 9/15
1169/1169 [==============================] - 44s 37ms/step - loss: 0.0886 - accuracy: 0.9668 - val_loss: 0.5928 - val_accuracy: 0.8214
Epoch 10/15
1169/1169 [==============================] - 44s 38ms/step - loss: 0.0700 - accuracy: 0.9743 - val_loss: 0.7158 - val_accuracy: 0.8161
Epoch 11/15
1169/1169 [==============================] - 44s 37ms/step - loss: 0.0654 - accuracy: 0.9763 - val_loss: 0.7259 - val_accuracy: 0.8247
Epoch 12/15
1169/1169 [==============================] - 44s 37ms/step - loss: 0.0521 - accuracy: 0.9824 - val_loss: 0.7651 - val_accuracy: 0.8333
Epoch 13/15
1169/1169 [==============================] - 44s 37ms/step - loss: 0.0505 - accuracy: 0.9825 - val_loss: 0.7355 - val_accuracy: 0.8302
Epoch 14/15
1169/1169 [==============================] - 44s 38ms/step - loss: 0.0458 - accuracy: 0.9838 - val_loss: 0.7934 - val_accuracy: 0.8288
Epoch 15/15
1169/1169 [==============================] - 44s 38ms/step - loss: 0.0515 - accuracy: 0.9816 - val_loss: 0.8222 - val_accuracy: 0.8340
 39%|███▉      | 42/108 [6:35:13<14:52:16, 811.16s/it]Found 18697 images belonging to 2 classes.
Found 6303 images belonging to 2 classes.
Epoch 1/15
1169/1169 [==============================] - 105s 90ms/step - loss: 7.6306 - accuracy: 0.5020 - val_loss: 7.7574 - val_accuracy: 0.4941
Epoch 2/15
1169/1169 [==============================] - 105s 90ms/step - loss: 7.6349 - accuracy: 0.5020 - val_loss: 7.7574 - val_accuracy: 0.4941
Epoch 3/15
1169/1169 [==============================] - 104s 89ms/step - loss: 7.6349 - accuracy: 0.5020 - val_loss: 7.7577 - val_accuracy: 0.4941
Epoch 4/15
1169/1169 [==============================] - 102s 87ms/step - loss: 7.6356 - accuracy: 0.5020 - val_loss: 7.7579 - val_accuracy: 0.4941
Epoch 5/15
1169/1169 [==============================] - 103s 88ms/step - loss: 7.6356 - accuracy: 0.5020 - val_loss: 7.7581 - val_accuracy: 0.4941
Epoch 6/15
1169/1169 [==============================] - 103s 88ms/step - loss: 7.6356 - accuracy: 0.5020 - val_loss: 7.7577 - val_accuracy: 0.4941
Epoch 7/15
1169/1169 [==============================] - 103s 88ms/step - loss: 7.6375 - accuracy: 0.5020 - val_loss: 7.7577 - val_accuracy: 0.4941
Epoch 8/15
1169/1169 [==============================] - 102s 87ms/step - loss: 7.6375 - accuracy: 0.5020 - val_loss: 7.7579 - val_accuracy: 0.4941
Epoch 9/15
1169/1169 [==============================] - 104s 89ms/step - loss: 7.6349 - accuracy: 0.5020 - val_loss: 7.7579 - val_accuracy: 0.4941
Epoch 10/15
1169/1169 [==============================] - 102s 88ms/step - loss: 7.6356 - accuracy: 0.5020 - val_loss: 7.7579 - val_accuracy: 0.4941
Epoch 11/15
1169/1169 [==============================] - 102s 88ms/step - loss: 7.6362 - accuracy: 0.5020 - val_loss: 7.7576 - val_accuracy: 0.4941
Epoch 12/15
1169/1169 [==============================] - 103s 88ms/step - loss: 7.6356 - accuracy: 0.5020 - val_loss: 7.7576 - val_accuracy: 0.4941
Epoch 13/15
1169/1169 [==============================] - 104s 89ms/step - loss: 7.6349 - accuracy: 0.5020 - val_loss: 7.7576 - val_accuracy: 0.4941
Epoch 14/15
1169/1169 [==============================] - 102s 87ms/step - loss: 7.6356 - accuracy: 0.5020 - val_loss: 7.7576 - val_accuracy: 0.4941
Epoch 15/15
1169/1169 [==============================] - 102s 87ms/step - loss: 7.6356 - accuracy: 0.5020 - val_loss: 7.7576 - val_accuracy: 0.4941
 40%|███▉      | 43/108 [7:01:00<18:38:02, 1032.04s/it]Found 18697 images belonging to 2 classes.
Found 6303 images belonging to 2 classes.
Epoch 1/15
1169/1169 [==============================] - 57s 49ms/step - loss: 7.7356 - accuracy: 0.4982 - val_loss: 7.6210 - val_accuracy: 0.5059
Epoch 2/15
1169/1169 [==============================] - 57s 48ms/step - loss: 7.7431 - accuracy: 0.4980 - val_loss: 7.6208 - val_accuracy: 0.5059
Epoch 3/15
1169/1169 [==============================] - 56s 48ms/step - loss: 7.7418 - accuracy: 0.4980 - val_loss: 7.6208 - val_accuracy: 0.5059
Epoch 4/15
1169/1169 [==============================] - 56s 48ms/step - loss: 7.7424 - accuracy: 0.4980 - val_loss: 7.6210 - val_accuracy: 0.5059
Epoch 5/15
1169/1169 [==============================] - 56s 48ms/step - loss: 7.7444 - accuracy: 0.4980 - val_loss: 7.6206 - val_accuracy: 0.5059
Epoch 6/15
1169/1169 [==============================] - 56s 48ms/step - loss: 7.7450 - accuracy: 0.4980 - val_loss: 7.6208 - val_accuracy: 0.5059
Epoch 7/15
1169/1169 [==============================] - 56s 48ms/step - loss: 7.7437 - accuracy: 0.4980 - val_loss: 7.6208 - val_accuracy: 0.5059
Epoch 8/15
1169/1169 [==============================] - 56s 48ms/step - loss: 7.7437 - accuracy: 0.4980 - val_loss: 7.6210 - val_accuracy: 0.5059
Epoch 9/15
1169/1169 [==============================] - 56s 48ms/step - loss: 7.7444 - accuracy: 0.4980 - val_loss: 7.6206 - val_accuracy: 0.5059
Epoch 10/15
1169/1169 [==============================] - 56s 48ms/step - loss: 7.7437 - accuracy: 0.4980 - val_loss: 7.6208 - val_accuracy: 0.5059
Epoch 11/15
1169/1169 [==============================] - 56s 48ms/step - loss: 7.7444 - accuracy: 0.4980 - val_loss: 7.6208 - val_accuracy: 0.5059
Epoch 12/15
1169/1169 [==============================] - 56s 48ms/step - loss: 7.7444 - accuracy: 0.4980 - val_loss: 7.6211 - val_accuracy: 0.5059
Epoch 13/15
1169/1169 [==============================] - 55s 47ms/step - loss: 7.7437 - accuracy: 0.4980 - val_loss: 7.6211 - val_accuracy: 0.5059
Epoch 14/15
1169/1169 [==============================] - 56s 47ms/step - loss: 7.7431 - accuracy: 0.4980 - val_loss: 7.6211 - val_accuracy: 0.5059
Epoch 15/15
1169/1169 [==============================] - 56s 48ms/step - loss: 7.7450 - accuracy: 0.4980 - val_loss: 7.6211 - val_accuracy: 0.5059
 41%|████      | 44/108 [7:15:01<17:19:30, 974.55s/it] Found 18697 images belonging to 2 classes.
Found 6303 images belonging to 2 classes.
Epoch 1/15
1169/1169 [==============================] - 49s 42ms/step - loss: 0.5960 - accuracy: 0.6837 - val_loss: 0.5085 - val_accuracy: 0.7542
Epoch 2/15
1169/1169 [==============================] - 49s 42ms/step - loss: 0.4529 - accuracy: 0.7908 - val_loss: 0.4161 - val_accuracy: 0.8072
Epoch 3/15
1169/1169 [==============================] - 50s 43ms/step - loss: 0.3762 - accuracy: 0.8310 - val_loss: 0.3919 - val_accuracy: 0.8229
Epoch 4/15
1169/1169 [==============================] - 50s 43ms/step - loss: 0.3098 - accuracy: 0.8650 - val_loss: 0.3951 - val_accuracy: 0.8191
Epoch 5/15
1169/1169 [==============================] - 50s 43ms/step - loss: 0.2368 - accuracy: 0.9002 - val_loss: 0.4050 - val_accuracy: 0.8339
Epoch 6/15
1169/1169 [==============================] - 50s 43ms/step - loss: 0.1697 - accuracy: 0.9294 - val_loss: 0.4324 - val_accuracy: 0.8344
Epoch 7/15
1169/1169 [==============================] - 49s 42ms/step - loss: 0.1230 - accuracy: 0.9506 - val_loss: 0.5122 - val_accuracy: 0.8398
Epoch 8/15
1169/1169 [==============================] - 50s 42ms/step - loss: 0.0911 - accuracy: 0.9670 - val_loss: 0.5537 - val_accuracy: 0.8334
Epoch 9/15
1169/1169 [==============================] - 50s 42ms/step - loss: 0.0829 - accuracy: 0.9702 - val_loss: 0.5872 - val_accuracy: 0.8375
Epoch 10/15
1169/1169 [==============================] - 49s 42ms/step - loss: 0.0681 - accuracy: 0.9749 - val_loss: 0.6697 - val_accuracy: 0.8312
Epoch 11/15
1169/1169 [==============================] - 50s 42ms/step - loss: 0.0593 - accuracy: 0.9775 - val_loss: 0.7532 - val_accuracy: 0.8364
Epoch 12/15
1169/1169 [==============================] - 49s 42ms/step - loss: 0.0513 - accuracy: 0.9820 - val_loss: 0.6839 - val_accuracy: 0.8402
Epoch 13/15
1169/1169 [==============================] - 49s 42ms/step - loss: 0.0545 - accuracy: 0.9788 - val_loss: 0.7229 - val_accuracy: 0.8337
Epoch 14/15
1169/1169 [==============================] - 49s 42ms/step - loss: 0.0477 - accuracy: 0.9828 - val_loss: 0.7188 - val_accuracy: 0.8404
Epoch 15/15
1169/1169 [==============================] - 49s 42ms/step - loss: 0.0404 - accuracy: 0.9858 - val_loss: 0.8061 - val_accuracy: 0.8444
 42%|████▏     | 45/108 [7:27:25<15:50:41, 905.41s/it]Found 18697 images belonging to 2 classes.
Found 6303 images belonging to 2 classes.
Epoch 1/15
1169/1169 [==============================] - 88s 75ms/step - loss: 7.6320 - accuracy: 0.5018 - val_loss: 7.7579 - val_accuracy: 0.4941
Epoch 2/15
1169/1169 [==============================] - 86s 73ms/step - loss: 7.6362 - accuracy: 0.5020 - val_loss: 7.7579 - val_accuracy: 0.4941
Epoch 3/15
1169/1169 [==============================] - 85s 72ms/step - loss: 7.6381 - accuracy: 0.5020 - val_loss: 7.7576 - val_accuracy: 0.4941
Epoch 4/15
1169/1169 [==============================] - 85s 73ms/step - loss: 7.6362 - accuracy: 0.5020 - val_loss: 7.7577 - val_accuracy: 0.4941
Epoch 5/15
1169/1169 [==============================] - 86s 73ms/step - loss: 7.6362 - accuracy: 0.5020 - val_loss: 7.7582 - val_accuracy: 0.4941
Epoch 6/15
1169/1169 [==============================] - 85s 73ms/step - loss: 7.6343 - accuracy: 0.5020 - val_loss: 7.7581 - val_accuracy: 0.4941
Epoch 7/15
1169/1169 [==============================] - 87s 75ms/step - loss: 7.6368 - accuracy: 0.5020 - val_loss: 7.7579 - val_accuracy: 0.4941
Epoch 8/15
1169/1169 [==============================] - 86s 73ms/step - loss: 7.6362 - accuracy: 0.5020 - val_loss: 7.7584 - val_accuracy: 0.4941
Epoch 9/15
1169/1169 [==============================] - 87s 74ms/step - loss: 7.6362 - accuracy: 0.5020 - val_loss: 7.7581 - val_accuracy: 0.4941
Epoch 10/15
1169/1169 [==============================] - 87s 75ms/step - loss: 7.6368 - accuracy: 0.5020 - val_loss: 7.7576 - val_accuracy: 0.4941
Epoch 11/15
1169/1169 [==============================] - 87s 74ms/step - loss: 7.6362 - accuracy: 0.5020 - val_loss: 7.7576 - val_accuracy: 0.4941
Epoch 12/15
1169/1169 [==============================] - 87s 75ms/step - loss: 7.6356 - accuracy: 0.5020 - val_loss: 7.7576 - val_accuracy: 0.4941
Epoch 13/15
1169/1169 [==============================] - 86s 74ms/step - loss: 7.6368 - accuracy: 0.5020 - val_loss: 7.7576 - val_accuracy: 0.4941
Epoch 14/15
1169/1169 [==============================] - 87s 74ms/step - loss: 7.6362 - accuracy: 0.5020 - val_loss: 7.7576 - val_accuracy: 0.4941
Epoch 15/15
1169/1169 [==============================] - 87s 74ms/step - loss: 7.6356 - accuracy: 0.5020 - val_loss: 7.7576 - val_accuracy: 0.4941
 43%|████▎     | 46/108 [7:49:01<17:36:37, 1022.54s/it]Found 18697 images belonging to 2 classes.
Found 6303 images belonging to 2 classes.
Epoch 1/15
1169/1169 [==============================] - 48s 41ms/step - loss: 7.6319 - accuracy: 0.5018 - val_loss: 7.7579 - val_accuracy: 0.4941
Epoch 2/15
1169/1169 [==============================] - 48s 41ms/step - loss: 7.6362 - accuracy: 0.5020 - val_loss: 7.7581 - val_accuracy: 0.4941
Epoch 3/15
1169/1169 [==============================] - 47s 41ms/step - loss: 7.6343 - accuracy: 0.5020 - val_loss: 7.7586 - val_accuracy: 0.4941
Epoch 4/15
1169/1169 [==============================] - 47s 41ms/step - loss: 7.6356 - accuracy: 0.5020 - val_loss: 7.7577 - val_accuracy: 0.4941
Epoch 5/15
1169/1169 [==============================] - 47s 40ms/step - loss: 7.6368 - accuracy: 0.5020 - val_loss: 7.7579 - val_accuracy: 0.4941
Epoch 6/15
1169/1169 [==============================] - 47s 40ms/step - loss: 7.6349 - accuracy: 0.5020 - val_loss: 7.7584 - val_accuracy: 0.4941
Epoch 7/15
1169/1169 [==============================] - 47s 40ms/step - loss: 7.6356 - accuracy: 0.5020 - val_loss: 7.7584 - val_accuracy: 0.4941
Epoch 8/15
1169/1169 [==============================] - 47s 40ms/step - loss: 7.6356 - accuracy: 0.5020 - val_loss: 7.7579 - val_accuracy: 0.4941
Epoch 9/15
1169/1169 [==============================] - 47s 40ms/step - loss: 7.6356 - accuracy: 0.5020 - val_loss: 7.7579 - val_accuracy: 0.4941
Epoch 10/15
1169/1169 [==============================] - 47s 40ms/step - loss: 7.6362 - accuracy: 0.5020 - val_loss: 7.7579 - val_accuracy: 0.4941
Epoch 11/15
1169/1169 [==============================] - 47s 40ms/step - loss: 7.6356 - accuracy: 0.5020 - val_loss: 7.7581 - val_accuracy: 0.4941
Epoch 12/15
1169/1169 [==============================] - 47s 40ms/step - loss: 7.6336 - accuracy: 0.5020 - val_loss: 7.7581 - val_accuracy: 0.4941
Epoch 13/15
1169/1169 [==============================] - 47s 40ms/step - loss: 7.6349 - accuracy: 0.5020 - val_loss: 7.7581 - val_accuracy: 0.4941
Epoch 14/15
1169/1169 [==============================] - 47s 40ms/step - loss: 7.6381 - accuracy: 0.5020 - val_loss: 7.7581 - val_accuracy: 0.4941
Epoch 15/15
1169/1169 [==============================] - 47s 40ms/step - loss: 7.6356 - accuracy: 0.5020 - val_loss: 7.7584 - val_accuracy: 0.4941
 44%|████▎     | 47/108 [8:00:48<15:43:21, 927.89s/it] Found 18697 images belonging to 2 classes.
Found 6303 images belonging to 2 classes.
Epoch 1/15
1169/1169 [==============================] - 44s 38ms/step - loss: 0.6226 - accuracy: 0.6530 - val_loss: 0.5750 - val_accuracy: 0.7033
Epoch 2/15
1169/1169 [==============================] - 44s 38ms/step - loss: 0.4954 - accuracy: 0.7640 - val_loss: 0.4546 - val_accuracy: 0.7828
Epoch 3/15
1169/1169 [==============================] - 44s 37ms/step - loss: 0.4234 - accuracy: 0.8047 - val_loss: 0.4101 - val_accuracy: 0.8090
Epoch 4/15
1169/1169 [==============================] - 44s 37ms/step - loss: 0.3604 - accuracy: 0.8391 - val_loss: 0.4815 - val_accuracy: 0.7712
Epoch 5/15
1169/1169 [==============================] - 44s 38ms/step - loss: 0.2962 - accuracy: 0.8713 - val_loss: 0.3859 - val_accuracy: 0.8363
Epoch 6/15
1169/1169 [==============================] - 44s 38ms/step - loss: 0.2442 - accuracy: 0.8974 - val_loss: 0.3804 - val_accuracy: 0.8426
Epoch 7/15
1169/1169 [==============================] - 44s 38ms/step - loss: 0.1857 - accuracy: 0.9250 - val_loss: 0.4250 - val_accuracy: 0.8440
Epoch 8/15
1169/1169 [==============================] - 44s 38ms/step - loss: 0.1400 - accuracy: 0.9460 - val_loss: 0.4659 - val_accuracy: 0.8329
Epoch 9/15
1169/1169 [==============================] - 44s 38ms/step - loss: 0.1056 - accuracy: 0.9580 - val_loss: 0.5725 - val_accuracy: 0.8272
Epoch 10/15
1169/1169 [==============================] - 44s 38ms/step - loss: 0.0890 - accuracy: 0.9652 - val_loss: 0.6000 - val_accuracy: 0.8301
Epoch 11/15
1169/1169 [==============================] - 44s 38ms/step - loss: 0.0655 - accuracy: 0.9751 - val_loss: 0.7227 - val_accuracy: 0.8298
Epoch 12/15
1169/1169 [==============================] - 44s 38ms/step - loss: 0.0691 - accuracy: 0.9750 - val_loss: 0.7200 - val_accuracy: 0.8282
Epoch 13/15
1169/1169 [==============================] - 44s 38ms/step - loss: 0.0561 - accuracy: 0.9803 - val_loss: 0.7863 - val_accuracy: 0.8207
Epoch 14/15
1169/1169 [==============================] - 44s 38ms/step - loss: 0.0527 - accuracy: 0.9814 - val_loss: 0.7651 - val_accuracy: 0.8294
Epoch 15/15
1169/1169 [==============================] - 44s 38ms/step - loss: 0.0565 - accuracy: 0.9807 - val_loss: 0.8166 - val_accuracy: 0.8226
 44%|████▍     | 48/108 [8:11:48<14:07:42, 847.71s/it]Found 18697 images belonging to 2 classes.
Found 6303 images belonging to 2 classes.
Epoch 1/15
1169/1169 [==============================] - 102s 87ms/step - loss: 7.6330 - accuracy: 0.5018 - val_loss: 7.7581 - val_accuracy: 0.4941
Epoch 2/15
1169/1169 [==============================] - 100s 86ms/step - loss: 7.6362 - accuracy: 0.5020 - val_loss: 7.7581 - val_accuracy: 0.4941
Epoch 3/15
1169/1169 [==============================] - 100s 86ms/step - loss: 7.6375 - accuracy: 0.5020 - val_loss: 7.7582 - val_accuracy: 0.4941
Epoch 4/15
1169/1169 [==============================] - 100s 86ms/step - loss: 7.6343 - accuracy: 0.5020 - val_loss: 7.7582 - val_accuracy: 0.4941
Epoch 5/15
1169/1169 [==============================] - 101s 86ms/step - loss: 7.6375 - accuracy: 0.5020 - val_loss: 7.7582 - val_accuracy: 0.4941
Epoch 6/15
1169/1169 [==============================] - 103s 88ms/step - loss: 7.6356 - accuracy: 0.5020 - val_loss: 7.7582 - val_accuracy: 0.4941
Epoch 7/15
1169/1169 [==============================] - 101s 86ms/step - loss: 7.6368 - accuracy: 0.5020 - val_loss: 7.7582 - val_accuracy: 0.4941
Epoch 8/15
1169/1169 [==============================] - 99s 85ms/step - loss: 7.6362 - accuracy: 0.5020 - val_loss: 7.7582 - val_accuracy: 0.4941
Epoch 9/15
1169/1169 [==============================] - 101s 87ms/step - loss: 7.6362 - accuracy: 0.5020 - val_loss: 7.7582 - val_accuracy: 0.4941
Epoch 10/15
1169/1169 [==============================] - 100s 86ms/step - loss: 7.6349 - accuracy: 0.5020 - val_loss: 7.7582 - val_accuracy: 0.4941
Epoch 11/15
1169/1169 [==============================] - 101s 86ms/step - loss: 7.6368 - accuracy: 0.5020 - val_loss: 7.7582 - val_accuracy: 0.4941
Epoch 12/15
1169/1169 [==============================] - 103s 88ms/step - loss: 7.6343 - accuracy: 0.5020 - val_loss: 7.7582 - val_accuracy: 0.4941
Epoch 13/15
1169/1169 [==============================] - 103s 88ms/step - loss: 7.6368 - accuracy: 0.5020 - val_loss: 7.7582 - val_accuracy: 0.4941
Epoch 14/15
1169/1169 [==============================] - 101s 86ms/step - loss: 7.6362 - accuracy: 0.5020 - val_loss: 7.7581 - val_accuracy: 0.4941
Epoch 15/15
1169/1169 [==============================] - 101s 87ms/step - loss: 7.6343 - accuracy: 0.5020 - val_loss: 7.7581 - val_accuracy: 0.4941
 45%|████▌     | 49/108 [8:37:06<17:11:16, 1048.76s/it]Found 18697 images belonging to 2 classes.
Found 6303 images belonging to 2 classes.
Epoch 1/15
1169/1169 [==============================] - 56s 48ms/step - loss: 0.6497 - accuracy: 0.6389 - val_loss: 0.5309 - val_accuracy: 0.7297
Epoch 2/15
1169/1169 [==============================] - 55s 47ms/step - loss: 0.4732 - accuracy: 0.7784 - val_loss: 0.4274 - val_accuracy: 0.7982
Epoch 3/15
1169/1169 [==============================] - 55s 47ms/step - loss: 0.3720 - accuracy: 0.8345 - val_loss: 0.4137 - val_accuracy: 0.8209
Epoch 4/15
1169/1169 [==============================] - 55s 47ms/step - loss: 0.2924 - accuracy: 0.8750 - val_loss: 0.4347 - val_accuracy: 0.8139
Epoch 5/15
1169/1169 [==============================] - 55s 47ms/step - loss: 0.2155 - accuracy: 0.9099 - val_loss: 0.3587 - val_accuracy: 0.8520
Epoch 6/15
1169/1169 [==============================] - 54s 47ms/step - loss: 0.1497 - accuracy: 0.9392 - val_loss: 0.3666 - val_accuracy: 0.8553
Epoch 7/15
1169/1169 [==============================] - 55s 47ms/step - loss: 0.1031 - accuracy: 0.9602 - val_loss: 0.4450 - val_accuracy: 0.8504
Epoch 8/15
1169/1169 [==============================] - 54s 46ms/step - loss: 0.0732 - accuracy: 0.9720 - val_loss: 0.6291 - val_accuracy: 0.8559
Epoch 9/15
1169/1169 [==============================] - 55s 47ms/step - loss: 0.0750 - accuracy: 0.9728 - val_loss: 0.6157 - val_accuracy: 0.8236
Epoch 10/15
1169/1169 [==============================] - 55s 47ms/step - loss: 0.0503 - accuracy: 0.9829 - val_loss: 0.7068 - val_accuracy: 0.8458
Epoch 11/15
1169/1169 [==============================] - 55s 47ms/step - loss: 0.0602 - accuracy: 0.9801 - val_loss: 0.6021 - val_accuracy: 0.8532
Epoch 12/15
1169/1169 [==============================] - 55s 47ms/step - loss: 0.0468 - accuracy: 0.9830 - val_loss: 0.6416 - val_accuracy: 0.8518
Epoch 13/15
1169/1169 [==============================] - 55s 47ms/step - loss: 0.0412 - accuracy: 0.9861 - val_loss: 0.7273 - val_accuracy: 0.8412
Epoch 14/15
1169/1169 [==============================] - 55s 47ms/step - loss: 0.0445 - accuracy: 0.9853 - val_loss: 0.6330 - val_accuracy: 0.8580
Epoch 15/15
1169/1169 [==============================] - 55s 47ms/step - loss: 0.0374 - accuracy: 0.9870 - val_loss: 0.7677 - val_accuracy: 0.8597
 46%|████▋     | 50/108 [8:50:49<15:48:20, 981.04s/it] Found 18697 images belonging to 2 classes.
Found 6303 images belonging to 2 classes.
Epoch 1/15
1169/1169 [==============================] - 47s 40ms/step - loss: 0.6277 - accuracy: 0.6435 - val_loss: 0.5237 - val_accuracy: 0.7404
Epoch 2/15
1169/1169 [==============================] - 47s 40ms/step - loss: 0.4833 - accuracy: 0.7686 - val_loss: 0.4272 - val_accuracy: 0.8044
Epoch 3/15
1169/1169 [==============================] - 47s 40ms/step - loss: 0.4021 - accuracy: 0.8191 - val_loss: 0.4044 - val_accuracy: 0.8152
Epoch 4/15
1169/1169 [==============================] - 47s 40ms/step - loss: 0.3356 - accuracy: 0.8517 - val_loss: 0.3928 - val_accuracy: 0.8253
Epoch 5/15
1169/1169 [==============================] - 47s 40ms/step - loss: 0.2706 - accuracy: 0.8843 - val_loss: 0.3840 - val_accuracy: 0.8407
Epoch 6/15
1169/1169 [==============================] - 47s 40ms/step - loss: 0.2022 - accuracy: 0.9172 - val_loss: 0.4694 - val_accuracy: 0.8187
Epoch 7/15
1169/1169 [==============================] - 47s 40ms/step - loss: 0.1498 - accuracy: 0.9407 - val_loss: 0.4757 - val_accuracy: 0.8304
Epoch 8/15
1169/1169 [==============================] - 47s 41ms/step - loss: 0.1144 - accuracy: 0.9549 - val_loss: 0.5625 - val_accuracy: 0.8202
Epoch 9/15
1169/1169 [==============================] - 47s 40ms/step - loss: 0.0954 - accuracy: 0.9620 - val_loss: 0.6641 - val_accuracy: 0.8263
Epoch 10/15
1169/1169 [==============================] - 47s 41ms/step - loss: 0.0787 - accuracy: 0.9693 - val_loss: 0.6744 - val_accuracy: 0.8242
Epoch 11/15
1169/1169 [==============================] - 47s 40ms/step - loss: 0.0723 - accuracy: 0.9736 - val_loss: 0.6584 - val_accuracy: 0.8266
Epoch 12/15
1169/1169 [==============================] - 47s 40ms/step - loss: 0.0595 - accuracy: 0.9783 - val_loss: 0.7614 - val_accuracy: 0.8263
Epoch 13/15
1169/1169 [==============================] - 47s 40ms/step - loss: 0.0526 - accuracy: 0.9828 - val_loss: 0.8240 - val_accuracy: 0.8163
Epoch 14/15
1169/1169 [==============================] - 47s 40ms/step - loss: 0.0626 - accuracy: 0.9791 - val_loss: 0.8073 - val_accuracy: 0.8066
Epoch 15/15
1169/1169 [==============================] - 47s 40ms/step - loss: 0.0511 - accuracy: 0.9813 - val_loss: 0.8570 - val_accuracy: 0.8201
 47%|████▋     | 51/108 [9:02:34<14:13:19, 898.24s/it]Found 18697 images belonging to 2 classes.
Found 6303 images belonging to 2 classes.
Epoch 1/15
1169/1169 [==============================] - 83s 71ms/step - loss: 7.6324 - accuracy: 0.5022 - val_loss: 7.7581 - val_accuracy: 0.4941
Epoch 2/15
1169/1169 [==============================] - 84s 72ms/step - loss: 7.6368 - accuracy: 0.5020 - val_loss: 7.7573 - val_accuracy: 0.4941
Epoch 3/15
1169/1169 [==============================] - 83s 71ms/step - loss: 7.6362 - accuracy: 0.5020 - val_loss: 7.7579 - val_accuracy: 0.4941
Epoch 4/15
1169/1169 [==============================] - 83s 71ms/step - loss: 7.6343 - accuracy: 0.5020 - val_loss: 7.7579 - val_accuracy: 0.4941
Epoch 5/15
1169/1169 [==============================] - 82s 70ms/step - loss: 7.6336 - accuracy: 0.5020 - val_loss: 7.7574 - val_accuracy: 0.4941
Epoch 6/15
1169/1169 [==============================] - 84s 71ms/step - loss: 7.6356 - accuracy: 0.5020 - val_loss: 7.7577 - val_accuracy: 0.4941
Epoch 7/15
1169/1169 [==============================] - 82s 70ms/step - loss: 7.6362 - accuracy: 0.5020 - val_loss: 7.7582 - val_accuracy: 0.4941
Epoch 8/15
1169/1169 [==============================] - 83s 71ms/step - loss: 7.6368 - accuracy: 0.5020 - val_loss: 7.7581 - val_accuracy: 0.4941
Epoch 9/15
1169/1169 [==============================] - 82s 71ms/step - loss: 7.6362 - accuracy: 0.5020 - val_loss: 7.7582 - val_accuracy: 0.4941
Epoch 10/15
1169/1169 [==============================] - 83s 71ms/step - loss: 7.6356 - accuracy: 0.5020 - val_loss: 7.7579 - val_accuracy: 0.4941
Epoch 11/15
1169/1169 [==============================] - 83s 71ms/step - loss: 7.6362 - accuracy: 0.5020 - val_loss: 7.7574 - val_accuracy: 0.4941
Epoch 12/15
1169/1169 [==============================] - 83s 71ms/step - loss: 7.6349 - accuracy: 0.5020 - val_loss: 7.7581 - val_accuracy: 0.4941
Epoch 13/15
1169/1169 [==============================] - 83s 71ms/step - loss: 7.6362 - accuracy: 0.5020 - val_loss: 7.7581 - val_accuracy: 0.4941
Epoch 14/15
1169/1169 [==============================] - 83s 71ms/step - loss: 7.6368 - accuracy: 0.5020 - val_loss: 7.7582 - val_accuracy: 0.4941
Epoch 15/15
1169/1169 [==============================] - 81s 70ms/step - loss: 7.6381 - accuracy: 0.5020 - val_loss: 7.7573 - val_accuracy: 0.4941
 48%|████▊     | 52/108 [9:23:19<15:35:15, 1002.07s/it]Found 18697 images belonging to 2 classes.
Found 6303 images belonging to 2 classes.
Epoch 1/15
1169/1169 [==============================] - 48s 41ms/step - loss: 7.6283 - accuracy: 0.5021 - val_loss: 7.7581 - val_accuracy: 0.4941
Epoch 2/15
1169/1169 [==============================] - 48s 41ms/step - loss: 7.6349 - accuracy: 0.5020 - val_loss: 7.7581 - val_accuracy: 0.4941
Epoch 3/15
1169/1169 [==============================] - 48s 41ms/step - loss: 7.6349 - accuracy: 0.5020 - val_loss: 7.7581 - val_accuracy: 0.4941
Epoch 4/15
1169/1169 [==============================] - 47s 40ms/step - loss: 7.6362 - accuracy: 0.5020 - val_loss: 7.7581 - val_accuracy: 0.4941
Epoch 5/15
1169/1169 [==============================] - 47s 40ms/step - loss: 7.6362 - accuracy: 0.5020 - val_loss: 7.7581 - val_accuracy: 0.4941
Epoch 6/15
1169/1169 [==============================] - 47s 40ms/step - loss: 7.6362 - accuracy: 0.5020 - val_loss: 7.7581 - val_accuracy: 0.4941
Epoch 7/15
1169/1169 [==============================] - 47s 40ms/step - loss: 7.6368 - accuracy: 0.5020 - val_loss: 7.7581 - val_accuracy: 0.4941
Epoch 8/15
1169/1169 [==============================] - 47s 40ms/step - loss: 7.6368 - accuracy: 0.5020 - val_loss: 7.7581 - val_accuracy: 0.4941
Epoch 9/15
1169/1169 [==============================] - 47s 40ms/step - loss: 7.6349 - accuracy: 0.5020 - val_loss: 7.7581 - val_accuracy: 0.4941
Epoch 10/15
1169/1169 [==============================] - 47s 40ms/step - loss: 7.6343 - accuracy: 0.5020 - val_loss: 7.7581 - val_accuracy: 0.4941
Epoch 11/15
1169/1169 [==============================] - 47s 40ms/step - loss: 7.6375 - accuracy: 0.5020 - val_loss: 7.7581 - val_accuracy: 0.4941
Epoch 12/15
1169/1169 [==============================] - 47s 40ms/step - loss: 7.6356 - accuracy: 0.5020 - val_loss: 7.7581 - val_accuracy: 0.4941
Epoch 13/15
1169/1169 [==============================] - 47s 40ms/step - loss: 7.6362 - accuracy: 0.5020 - val_loss: 7.7581 - val_accuracy: 0.4941
Epoch 14/15
1169/1169 [==============================] - 47s 40ms/step - loss: 7.6368 - accuracy: 0.5020 - val_loss: 7.7581 - val_accuracy: 0.4941
Epoch 15/15
1169/1169 [==============================] - 47s 40ms/step - loss: 7.6349 - accuracy: 0.5020 - val_loss: 7.7581 - val_accuracy: 0.4941
 49%|████▉     | 53/108 [9:35:06<13:57:37, 913.78s/it] Found 18697 images belonging to 2 classes.
Found 6303 images belonging to 2 classes.
Epoch 1/15
1169/1169 [==============================] - 44s 38ms/step - loss: 0.6192 - accuracy: 0.6536 - val_loss: 0.5288 - val_accuracy: 0.7360
Epoch 2/15
1169/1169 [==============================] - 44s 38ms/step - loss: 0.4905 - accuracy: 0.7666 - val_loss: 0.4765 - val_accuracy: 0.7730
Epoch 3/15
1169/1169 [==============================] - 44s 38ms/step - loss: 0.4172 - accuracy: 0.8078 - val_loss: 0.4119 - val_accuracy: 0.8074
Epoch 4/15
1169/1169 [==============================] - 44s 38ms/step - loss: 0.3612 - accuracy: 0.8383 - val_loss: 0.3898 - val_accuracy: 0.8209
Epoch 5/15
1169/1169 [==============================] - 44s 38ms/step - loss: 0.3038 - accuracy: 0.8703 - val_loss: 0.4024 - val_accuracy: 0.8247
Epoch 6/15
1169/1169 [==============================] - 44s 38ms/step - loss: 0.2461 - accuracy: 0.8970 - val_loss: 0.4070 - val_accuracy: 0.8287
Epoch 7/15
1169/1169 [==============================] - 44s 38ms/step - loss: 0.1853 - accuracy: 0.9236 - val_loss: 0.4360 - val_accuracy: 0.8377
Epoch 8/15
1169/1169 [==============================] - 44s 37ms/step - loss: 0.1384 - accuracy: 0.9444 - val_loss: 0.5179 - val_accuracy: 0.8266
Epoch 9/15
1169/1169 [==============================] - 44s 38ms/step - loss: 0.1121 - accuracy: 0.9560 - val_loss: 0.6165 - val_accuracy: 0.8221
Epoch 10/15
1169/1169 [==============================] - 44s 38ms/step - loss: 0.0981 - accuracy: 0.9612 - val_loss: 0.6051 - val_accuracy: 0.8202
Epoch 11/15
1169/1169 [==============================] - 44s 38ms/step - loss: 0.0717 - accuracy: 0.9739 - val_loss: 0.6805 - val_accuracy: 0.8234
Epoch 12/15
1169/1169 [==============================] - 44s 38ms/step - loss: 0.0712 - accuracy: 0.9732 - val_loss: 0.7077 - val_accuracy: 0.8131
Epoch 13/15
1169/1169 [==============================] - 44s 38ms/step - loss: 0.0630 - accuracy: 0.9775 - val_loss: 0.7066 - val_accuracy: 0.8282
Epoch 14/15
1169/1169 [==============================] - 44s 37ms/step - loss: 0.0534 - accuracy: 0.9815 - val_loss: 0.7980 - val_accuracy: 0.8269
Epoch 15/15
1169/1169 [==============================] - 44s 37ms/step - loss: 0.0621 - accuracy: 0.9786 - val_loss: 0.8300 - val_accuracy: 0.8267
 50%|█████     | 54/108 [9:46:06<12:33:55, 837.69s/it]Found 18697 images belonging to 2 classes.
Found 6303 images belonging to 2 classes.
Epoch 1/5
1169/1169 [==============================] - 99s 85ms/step - loss: 7.6298 - accuracy: 0.5020 - val_loss: 7.7576 - val_accuracy: 0.4941
Epoch 2/5
1169/1169 [==============================] - 98s 84ms/step - loss: 7.6356 - accuracy: 0.5020 - val_loss: 7.7582 - val_accuracy: 0.4941
Epoch 3/5
1169/1169 [==============================] - 100s 85ms/step - loss: 7.6368 - accuracy: 0.5020 - val_loss: 7.7582 - val_accuracy: 0.4941
Epoch 4/5
1169/1169 [==============================] - 98s 84ms/step - loss: 7.6362 - accuracy: 0.5020 - val_loss: 7.7582 - val_accuracy: 0.4941
Epoch 5/5
1169/1169 [==============================] - 98s 84ms/step - loss: 7.6343 - accuracy: 0.5020 - val_loss: 7.7582 - val_accuracy: 0.4941
 51%|█████     | 55/108 [9:54:20<10:48:41, 734.37s/it]Found 18697 images belonging to 2 classes.
Found 6303 images belonging to 2 classes.
Epoch 1/5
1169/1169 [==============================] - 54s 47ms/step - loss: 7.6233 - accuracy: 0.5025 - val_loss: 7.7586 - val_accuracy: 0.4941
Epoch 2/5
1169/1169 [==============================] - 54s 46ms/step - loss: 7.6362 - accuracy: 0.5020 - val_loss: 7.7581 - val_accuracy: 0.4941
Epoch 3/5
1169/1169 [==============================] - 54s 46ms/step - loss: 7.6356 - accuracy: 0.5020 - val_loss: 7.7581 - val_accuracy: 0.4941
Epoch 4/5
1169/1169 [==============================] - 54s 46ms/step - loss: 7.6362 - accuracy: 0.5020 - val_loss: 7.7576 - val_accuracy: 0.4941
Epoch 5/5
1169/1169 [==============================] - 54s 46ms/step - loss: 7.6368 - accuracy: 0.5020 - val_loss: 7.7576 - val_accuracy: 0.4941
 52%|█████▏    | 56/108 [9:58:51<8:36:05, 595.49s/it] Found 18697 images belonging to 2 classes.
Found 6303 images belonging to 2 classes.
Epoch 1/5
1169/1169 [==============================] - 46s 39ms/step - loss: 7.6331 - accuracy: 0.5018 - val_loss: 7.7573 - val_accuracy: 0.4941
Epoch 2/5
1169/1169 [==============================] - 45s 39ms/step - loss: 7.6368 - accuracy: 0.5020 - val_loss: 7.7573 - val_accuracy: 0.4941
Epoch 3/5
1169/1169 [==============================] - 45s 39ms/step - loss: 7.6368 - accuracy: 0.5020 - val_loss: 7.7582 - val_accuracy: 0.4941
Epoch 4/5
1169/1169 [==============================] - 45s 39ms/step - loss: 7.6375 - accuracy: 0.5020 - val_loss: 7.7582 - val_accuracy: 0.4941
Epoch 5/5
1169/1169 [==============================] - 45s 38ms/step - loss: 7.6362 - accuracy: 0.5020 - val_loss: 7.7582 - val_accuracy: 0.4941
 53%|█████▎    | 57/108 [10:02:38<6:52:12, 484.94s/it]Found 18697 images belonging to 2 classes.
Found 6303 images belonging to 2 classes.
Epoch 1/5
1169/1169 [==============================] - 83s 71ms/step - loss: 7.6296 - accuracy: 0.5020 - val_loss: 7.7581 - val_accuracy: 0.4941
Epoch 2/5
1169/1169 [==============================] - 81s 70ms/step - loss: 7.6356 - accuracy: 0.5020 - val_loss: 7.7581 - val_accuracy: 0.4941
Epoch 3/5
1169/1169 [==============================] - 82s 70ms/step - loss: 7.6349 - accuracy: 0.5020 - val_loss: 7.7577 - val_accuracy: 0.4941
Epoch 4/5
1169/1169 [==============================] - 81s 69ms/step - loss: 7.6349 - accuracy: 0.5020 - val_loss: 7.7577 - val_accuracy: 0.4941
Epoch 5/5
1169/1169 [==============================] - 80s 69ms/step - loss: 7.6362 - accuracy: 0.5020 - val_loss: 7.7581 - val_accuracy: 0.4941
 54%|█████▎    | 58/108 [10:09:26<6:24:56, 461.93s/it]Found 18697 images belonging to 2 classes.
Found 6303 images belonging to 2 classes.
Epoch 1/5
1169/1169 [==============================] - 48s 41ms/step - loss: 7.7394 - accuracy: 0.4979 - val_loss: 7.6205 - val_accuracy: 0.5059
Epoch 2/5
1169/1169 [==============================] - 47s 40ms/step - loss: 7.7437 - accuracy: 0.4980 - val_loss: 7.6198 - val_accuracy: 0.5059
Epoch 3/5
1169/1169 [==============================] - 47s 40ms/step - loss: 7.7437 - accuracy: 0.4980 - val_loss: 7.6208 - val_accuracy: 0.5059
Epoch 4/5
1169/1169 [==============================] - 47s 40ms/step - loss: 7.7444 - accuracy: 0.4980 - val_loss: 7.6205 - val_accuracy: 0.5059
Epoch 5/5
1169/1169 [==============================] - 47s 40ms/step - loss: 7.7437 - accuracy: 0.4980 - val_loss: 7.6205 - val_accuracy: 0.5059
 55%|█████▍    | 59/108 [10:13:23<5:22:02, 394.34s/it]Found 18697 images belonging to 2 classes.
Found 6303 images belonging to 2 classes.
Epoch 1/5
1169/1169 [==============================] - 44s 38ms/step - loss: 7.6276 - accuracy: 0.5020 - val_loss: 7.7579 - val_accuracy: 0.4941
Epoch 2/5
1169/1169 [==============================] - 44s 38ms/step - loss: 7.6343 - accuracy: 0.5020 - val_loss: 7.7579 - val_accuracy: 0.4941
Epoch 3/5
1169/1169 [==============================] - 44s 38ms/step - loss: 7.6368 - accuracy: 0.5020 - val_loss: 7.7586 - val_accuracy: 0.4941
Epoch 4/5
1169/1169 [==============================] - 44s 38ms/step - loss: 7.6368 - accuracy: 0.5020 - val_loss: 7.7586 - val_accuracy: 0.4941
Epoch 5/5
1169/1169 [==============================] - 44s 38ms/step - loss: 7.6343 - accuracy: 0.5020 - val_loss: 7.7577 - val_accuracy: 0.4941
 56%|█████▌    | 60/108 [10:17:05<4:34:03, 342.58s/it]Found 18697 images belonging to 2 classes.
Found 6303 images belonging to 2 classes.
Epoch 1/5
1169/1169 [==============================] - 105s 90ms/step - loss: 7.7386 - accuracy: 0.4977 - val_loss: 7.6208 - val_accuracy: 0.5059
Epoch 2/5
1169/1169 [==============================] - 106s 91ms/step - loss: 7.7418 - accuracy: 0.4980 - val_loss: 7.6206 - val_accuracy: 0.5059
Epoch 3/5
1169/1169 [==============================] - 105s 90ms/step - loss: 7.7418 - accuracy: 0.4980 - val_loss: 7.6206 - val_accuracy: 0.5059
Epoch 4/5
1169/1169 [==============================] - 105s 89ms/step - loss: 7.7418 - accuracy: 0.4980 - val_loss: 7.6206 - val_accuracy: 0.5059
Epoch 5/5
1169/1169 [==============================] - 104s 89ms/step - loss: 7.7431 - accuracy: 0.4980 - val_loss: 7.6206 - val_accuracy: 0.5059
 56%|█████▋    | 61/108 [10:25:51<5:11:32, 397.72s/it]Found 18697 images belonging to 2 classes.
Found 6303 images belonging to 2 classes.
Epoch 1/5
1169/1169 [==============================] - 57s 48ms/step - loss: 7.6272 - accuracy: 0.5023 - val_loss: 7.7576 - val_accuracy: 0.4941
Epoch 2/5
1169/1169 [==============================] - 56s 48ms/step - loss: 7.6356 - accuracy: 0.5020 - val_loss: 7.7576 - val_accuracy: 0.4941
Epoch 3/5
1169/1169 [==============================] - 56s 48ms/step - loss: 7.6349 - accuracy: 0.5020 - val_loss: 7.7574 - val_accuracy: 0.4941
Epoch 4/5
1169/1169 [==============================] - 56s 48ms/step - loss: 7.6343 - accuracy: 0.5020 - val_loss: 7.7577 - val_accuracy: 0.4941
Epoch 5/5
1169/1169 [==============================] - 56s 48ms/step - loss: 7.6368 - accuracy: 0.5020 - val_loss: 7.7577 - val_accuracy: 0.4941
 57%|█████▋    | 62/108 [10:30:33<4:38:14, 362.91s/it]Found 18697 images belonging to 2 classes.
Found 6303 images belonging to 2 classes.
Epoch 1/5
1169/1169 [==============================] - 50s 43ms/step - loss: 7.7355 - accuracy: 0.4982 - val_loss: 7.6208 - val_accuracy: 0.5059
Epoch 2/5
1169/1169 [==============================] - 49s 42ms/step - loss: 7.7431 - accuracy: 0.4980 - val_loss: 7.6205 - val_accuracy: 0.5059
Epoch 3/5
1169/1169 [==============================] - 50s 43ms/step - loss: 7.7424 - accuracy: 0.4980 - val_loss: 7.6205 - val_accuracy: 0.5059
Epoch 4/5
1169/1169 [==============================] - 50s 42ms/step - loss: 7.7431 - accuracy: 0.4980 - val_loss: 7.6210 - val_accuracy: 0.5059
Epoch 5/5
1169/1169 [==============================] - 49s 42ms/step - loss: 7.7437 - accuracy: 0.4980 - val_loss: 7.6211 - val_accuracy: 0.5059
 58%|█████▊    | 63/108 [10:34:42<4:06:37, 328.83s/it]Found 18697 images belonging to 2 classes.
Found 6303 images belonging to 2 classes.
Epoch 1/5
1169/1169 [==============================] - 88s 76ms/step - loss: 7.7372 - accuracy: 0.4980 - val_loss: 7.6208 - val_accuracy: 0.5059
Epoch 2/5
1169/1169 [==============================] - 88s 76ms/step - loss: 7.7431 - accuracy: 0.4980 - val_loss: 7.6205 - val_accuracy: 0.5059
Epoch 3/5
1169/1169 [==============================] - 88s 75ms/step - loss: 7.7437 - accuracy: 0.4980 - val_loss: 7.6205 - val_accuracy: 0.5059
Epoch 4/5
1169/1169 [==============================] - 88s 76ms/step - loss: 7.7431 - accuracy: 0.4980 - val_loss: 7.6206 - val_accuracy: 0.5059
Epoch 5/5
1169/1169 [==============================] - 88s 75ms/step - loss: 7.7431 - accuracy: 0.4980 - val_loss: 7.6206 - val_accuracy: 0.5059
 59%|█████▉    | 64/108 [10:42:05<4:26:05, 362.86s/it]Found 18697 images belonging to 2 classes.
Found 6303 images belonging to 2 classes.
Epoch 1/5
1169/1169 [==============================] - 48s 41ms/step - loss: 7.6302 - accuracy: 0.5021 - val_loss: 7.7579 - val_accuracy: 0.4941
Epoch 2/5
1169/1169 [==============================] - 48s 41ms/step - loss: 7.6368 - accuracy: 0.5020 - val_loss: 7.7582 - val_accuracy: 0.4941
Epoch 3/5
1169/1169 [==============================] - 48s 41ms/step - loss: 7.6343 - accuracy: 0.5020 - val_loss: 7.7577 - val_accuracy: 0.4941
Epoch 4/5
1169/1169 [==============================] - 48s 41ms/step - loss: 7.6349 - accuracy: 0.5020 - val_loss: 7.7576 - val_accuracy: 0.4941
Epoch 5/5
1169/1169 [==============================] - 47s 40ms/step - loss: 7.6349 - accuracy: 0.5020 - val_loss: 7.7576 - val_accuracy: 0.4941
 60%|██████    | 65/108 [10:46:04<3:53:35, 325.93s/it]Found 18697 images belonging to 2 classes.
Found 6303 images belonging to 2 classes.
Epoch 1/5
1169/1169 [==============================] - 45s 38ms/step - loss: 7.6332 - accuracy: 0.5016 - val_loss: 7.7577 - val_accuracy: 0.4941
Epoch 2/5
1169/1169 [==============================] - 44s 38ms/step - loss: 7.6356 - accuracy: 0.5020 - val_loss: 7.7577 - val_accuracy: 0.4941
Epoch 3/5
1169/1169 [==============================] - 44s 38ms/step - loss: 7.6362 - accuracy: 0.5020 - val_loss: 7.7577 - val_accuracy: 0.4941
Epoch 4/5
1169/1169 [==============================] - 44s 38ms/step - loss: 7.6349 - accuracy: 0.5020 - val_loss: 7.7577 - val_accuracy: 0.4941
Epoch 5/5
1169/1169 [==============================] - 44s 38ms/step - loss: 7.6362 - accuracy: 0.5020 - val_loss: 7.7581 - val_accuracy: 0.4941
 61%|██████    | 66/108 [10:49:46<3:26:19, 294.76s/it]Found 18697 images belonging to 2 classes.
Found 6303 images belonging to 2 classes.
Epoch 1/5
1169/1169 [==============================] - 103s 88ms/step - loss: 7.7354 - accuracy: 0.4983 - val_loss: 7.6213 - val_accuracy: 0.5059
Epoch 2/5
1169/1169 [==============================] - 103s 88ms/step - loss: 7.7431 - accuracy: 0.4980 - val_loss: 7.6213 - val_accuracy: 0.5059
Epoch 3/5
1169/1169 [==============================] - 103s 88ms/step - loss: 7.7437 - accuracy: 0.4980 - val_loss: 7.6213 - val_accuracy: 0.5059
Epoch 4/5
1169/1169 [==============================] - 103s 88ms/step - loss: 7.7431 - accuracy: 0.4980 - val_loss: 7.6213 - val_accuracy: 0.5059
Epoch 5/5
1169/1169 [==============================] - 103s 88ms/step - loss: 7.7450 - accuracy: 0.4980 - val_loss: 7.6213 - val_accuracy: 0.5059
 62%|██████▏   | 67/108 [10:58:22<4:06:36, 360.90s/it]Found 18697 images belonging to 2 classes.
Found 6303 images belonging to 2 classes.
Epoch 1/5
1169/1169 [==============================] - 56s 48ms/step - loss: 7.7379 - accuracy: 0.4980 - val_loss: 7.6206 - val_accuracy: 0.5059
Epoch 2/5
1169/1169 [==============================] - 55s 47ms/step - loss: 7.7431 - accuracy: 0.4980 - val_loss: 7.6206 - val_accuracy: 0.5059
Epoch 3/5
1169/1169 [==============================] - 56s 48ms/step - loss: 7.7444 - accuracy: 0.4980 - val_loss: 7.6205 - val_accuracy: 0.5059
Epoch 4/5
1169/1169 [==============================] - 55s 47ms/step - loss: 7.7424 - accuracy: 0.4980 - val_loss: 7.6203 - val_accuracy: 0.5059
Epoch 5/5
1169/1169 [==============================] - 55s 47ms/step - loss: 7.7431 - accuracy: 0.4980 - val_loss: 7.6208 - val_accuracy: 0.5059
 63%|██████▎   | 68/108 [11:03:00<3:44:09, 336.23s/it]Found 18697 images belonging to 2 classes.
Found 6303 images belonging to 2 classes.
Epoch 1/5
1169/1169 [==============================] - 48s 41ms/step - loss: 7.7409 - accuracy: 0.4978 - val_loss: 7.6203 - val_accuracy: 0.5059
Epoch 2/5
1169/1169 [==============================] - 48s 41ms/step - loss: 7.7444 - accuracy: 0.4980 - val_loss: 7.6203 - val_accuracy: 0.5059
Epoch 3/5
1169/1169 [==============================] - 47s 41ms/step - loss: 7.7450 - accuracy: 0.4980 - val_loss: 7.6203 - val_accuracy: 0.5059
Epoch 4/5
1169/1169 [==============================] - 49s 42ms/step - loss: 7.7444 - accuracy: 0.4980 - val_loss: 7.6205 - val_accuracy: 0.5059
Epoch 5/5
1169/1169 [==============================] - 49s 42ms/step - loss: 7.7444 - accuracy: 0.4980 - val_loss: 7.6205 - val_accuracy: 0.5059
 64%|██████▍   | 69/108 [11:07:02<3:20:13, 308.05s/it]Found 18697 images belonging to 2 classes.
Found 6303 images belonging to 2 classes.
Epoch 1/5
1169/1169 [==============================] - 87s 74ms/step - loss: 7.7386 - accuracy: 0.4978 - val_loss: 7.6208 - val_accuracy: 0.5059
Epoch 2/5
1169/1169 [==============================] - 87s 74ms/step - loss: 7.7437 - accuracy: 0.4980 - val_loss: 7.6215 - val_accuracy: 0.5059
Epoch 3/5
1169/1169 [==============================] - 88s 75ms/step - loss: 7.7444 - accuracy: 0.4980 - val_loss: 7.6206 - val_accuracy: 0.5059
Epoch 4/5
1169/1169 [==============================] - 87s 74ms/step - loss: 7.7450 - accuracy: 0.4980 - val_loss: 7.6206 - val_accuracy: 0.5059
Epoch 5/5
1169/1169 [==============================] - 85s 73ms/step - loss: 7.7418 - accuracy: 0.4980 - val_loss: 7.6206 - val_accuracy: 0.5059
 65%|██████▍   | 70/108 [11:14:17<3:39:09, 346.04s/it]Found 18697 images belonging to 2 classes.
Found 6303 images belonging to 2 classes.
Epoch 1/5
1169/1169 [==============================] - 50s 43ms/step - loss: 7.7362 - accuracy: 0.4982 - val_loss: 7.6206 - val_accuracy: 0.5059
Epoch 2/5
1169/1169 [==============================] - 49s 42ms/step - loss: 7.7431 - accuracy: 0.4980 - val_loss: 7.6203 - val_accuracy: 0.5059
Epoch 3/5
1169/1169 [==============================] - 50s 43ms/step - loss: 7.7437 - accuracy: 0.4980 - val_loss: 7.6205 - val_accuracy: 0.5059
Epoch 4/5
1169/1169 [==============================] - 51s 44ms/step - loss: 7.7431 - accuracy: 0.4980 - val_loss: 7.6205 - val_accuracy: 0.5059
Epoch 5/5
1169/1169 [==============================] - 49s 42ms/step - loss: 7.7456 - accuracy: 0.4980 - val_loss: 7.6210 - val_accuracy: 0.5059
 66%|██████▌   | 71/108 [11:18:28<3:15:41, 317.33s/it]Found 18697 images belonging to 2 classes.
Found 6303 images belonging to 2 classes.
Epoch 1/5
1169/1169 [==============================] - 47s 40ms/step - loss: 7.7409 - accuracy: 0.4979 - val_loss: 7.6206 - val_accuracy: 0.5059
Epoch 2/5
1169/1169 [==============================] - 47s 40ms/step - loss: 7.7437 - accuracy: 0.4980 - val_loss: 7.6208 - val_accuracy: 0.5059
Epoch 3/5
1169/1169 [==============================] - 45s 38ms/step - loss: 7.7450 - accuracy: 0.4980 - val_loss: 7.6208 - val_accuracy: 0.5059
Epoch 4/5
1169/1169 [==============================] - 45s 38ms/step - loss: 7.7437 - accuracy: 0.4980 - val_loss: 7.6208 - val_accuracy: 0.5059
Epoch 5/5
1169/1169 [==============================] - 45s 39ms/step - loss: 7.7437 - accuracy: 0.4980 - val_loss: 7.6208 - val_accuracy: 0.5059
 67%|██████▋   | 72/108 [11:22:17<2:54:33, 290.93s/it]Found 18697 images belonging to 2 classes.
Found 6303 images belonging to 2 classes.
Epoch 1/10
1169/1169 [==============================] - 107s 91ms/step - loss: 7.7361 - accuracy: 0.4982 - val_loss: 7.6205 - val_accuracy: 0.5059
Epoch 2/10
1169/1169 [==============================] - 104s 89ms/step - loss: 7.7437 - accuracy: 0.4980 - val_loss: 7.6205 - val_accuracy: 0.5059
Epoch 3/10
1169/1169 [==============================] - 104s 89ms/step - loss: 7.7431 - accuracy: 0.4980 - val_loss: 7.6205 - val_accuracy: 0.5059
Epoch 4/10
1169/1169 [==============================] - 105s 90ms/step - loss: 7.7456 - accuracy: 0.4980 - val_loss: 7.6205 - val_accuracy: 0.5059
Epoch 5/10
1169/1169 [==============================] - 103s 88ms/step - loss: 7.7424 - accuracy: 0.4980 - val_loss: 7.6205 - val_accuracy: 0.5059
Epoch 6/10
1169/1169 [==============================] - 103s 88ms/step - loss: 7.7431 - accuracy: 0.4980 - val_loss: 7.6206 - val_accuracy: 0.5059
Epoch 7/10
1169/1169 [==============================] - 103s 88ms/step - loss: 7.7418 - accuracy: 0.4980 - val_loss: 7.6206 - val_accuracy: 0.5059
Epoch 8/10
1169/1169 [==============================] - 104s 89ms/step - loss: 7.7424 - accuracy: 0.4980 - val_loss: 7.6206 - val_accuracy: 0.5059
Epoch 9/10
1169/1169 [==============================] - 103s 88ms/step - loss: 7.7444 - accuracy: 0.4980 - val_loss: 7.6206 - val_accuracy: 0.5059
Epoch 10/10
1169/1169 [==============================] - 101s 87ms/step - loss: 7.7431 - accuracy: 0.4980 - val_loss: 7.6206 - val_accuracy: 0.5059
 68%|██████▊   | 73/108 [11:39:35<5:00:31, 515.17s/it]Found 18697 images belonging to 2 classes.
Found 6303 images belonging to 2 classes.
Epoch 1/10
1169/1169 [==============================] - 56s 48ms/step - loss: 7.7348 - accuracy: 0.4982 - val_loss: 7.6213 - val_accuracy: 0.5059
Epoch 2/10
1169/1169 [==============================] - 55s 47ms/step - loss: 7.7424 - accuracy: 0.4980 - val_loss: 7.6203 - val_accuracy: 0.5059
Epoch 3/10
1169/1169 [==============================] - 55s 47ms/step - loss: 7.7450 - accuracy: 0.4980 - val_loss: 7.6203 - val_accuracy: 0.5059
Epoch 4/10
1169/1169 [==============================] - 55s 47ms/step - loss: 7.7431 - accuracy: 0.4980 - val_loss: 7.6211 - val_accuracy: 0.5059
Epoch 5/10
1169/1169 [==============================] - 54s 46ms/step - loss: 7.7444 - accuracy: 0.4980 - val_loss: 7.6205 - val_accuracy: 0.5059
Epoch 6/10
1169/1169 [==============================] - 54s 46ms/step - loss: 7.7444 - accuracy: 0.4980 - val_loss: 7.6211 - val_accuracy: 0.5059
Epoch 7/10
1169/1169 [==============================] - 54s 46ms/step - loss: 7.7424 - accuracy: 0.4980 - val_loss: 7.6205 - val_accuracy: 0.5059
Epoch 8/10
1169/1169 [==============================] - 54s 46ms/step - loss: 7.7444 - accuracy: 0.4980 - val_loss: 7.6206 - val_accuracy: 0.5059
Epoch 9/10
1169/1169 [==============================] - 58s 50ms/step - loss: 7.7418 - accuracy: 0.4980 - val_loss: 7.6205 - val_accuracy: 0.5059
Epoch 10/10
1169/1169 [==============================] - 59s 51ms/step - loss: 7.7444 - accuracy: 0.4980 - val_loss: 7.6206 - val_accuracy: 0.5059
 69%|██████▊   | 74/108 [11:48:50<4:58:43, 527.16s/it]Found 18697 images belonging to 2 classes.
Found 6303 images belonging to 2 classes.
Epoch 1/10
1169/1169 [==============================] - 51s 44ms/step - loss: 7.7390 - accuracy: 0.4977 - val_loss: 7.6206 - val_accuracy: 0.5059
Epoch 2/10
1169/1169 [==============================] - 50s 43ms/step - loss: 7.7424 - accuracy: 0.4980 - val_loss: 7.6215 - val_accuracy: 0.5059
Epoch 3/10
1169/1169 [==============================] - 48s 41ms/step - loss: 7.7418 - accuracy: 0.4980 - val_loss: 7.6206 - val_accuracy: 0.5059
Epoch 4/10
1169/1169 [==============================] - 51s 43ms/step - loss: 7.7444 - accuracy: 0.4980 - val_loss: 7.6206 - val_accuracy: 0.5059
Epoch 5/10
1169/1169 [==============================] - 51s 44ms/step - loss: 7.7424 - accuracy: 0.4980 - val_loss: 7.6205 - val_accuracy: 0.5059
Epoch 6/10
1169/1169 [==============================] - 51s 44ms/step - loss: 7.7418 - accuracy: 0.4980 - val_loss: 7.6205 - val_accuracy: 0.5059
Epoch 7/10
1169/1169 [==============================] - 48s 41ms/step - loss: 7.7431 - accuracy: 0.4980 - val_loss: 7.6205 - val_accuracy: 0.5059
Epoch 8/10
1169/1169 [==============================] - 46s 40ms/step - loss: 7.7437 - accuracy: 0.4980 - val_loss: 7.6205 - val_accuracy: 0.5059
Epoch 9/10
1169/1169 [==============================] - 46s 40ms/step - loss: 7.7437 - accuracy: 0.4980 - val_loss: 7.6210 - val_accuracy: 0.5059
Epoch 10/10
1169/1169 [==============================] - 47s 40ms/step - loss: 7.7437 - accuracy: 0.4980 - val_loss: 7.6210 - val_accuracy: 0.5059
 69%|██████▉   | 75/108 [11:57:00<4:43:47, 515.98s/it]Found 18697 images belonging to 2 classes.
Found 6303 images belonging to 2 classes.
Epoch 1/10
1169/1169 [==============================] - 86s 73ms/step - loss: 7.7445 - accuracy: 0.4971 - val_loss: 7.6206 - val_accuracy: 0.5059
Epoch 2/10
1169/1169 [==============================] - 87s 74ms/step - loss: 7.7437 - accuracy: 0.4980 - val_loss: 7.6211 - val_accuracy: 0.5059
Epoch 3/10
1169/1169 [==============================] - 87s 75ms/step - loss: 7.7418 - accuracy: 0.4980 - val_loss: 7.6205 - val_accuracy: 0.5059
Epoch 4/10
1169/1169 [==============================] - 87s 74ms/step - loss: 7.7437 - accuracy: 0.4980 - val_loss: 7.6203 - val_accuracy: 0.5059
Epoch 5/10
1169/1169 [==============================] - 90s 77ms/step - loss: 7.7418 - accuracy: 0.4980 - val_loss: 7.6203 - val_accuracy: 0.5059
Epoch 6/10
1169/1169 [==============================] - 88s 75ms/step - loss: 7.7450 - accuracy: 0.4980 - val_loss: 7.6203 - val_accuracy: 0.5059
Epoch 7/10
1169/1169 [==============================] - 88s 75ms/step - loss: 7.7450 - accuracy: 0.4980 - val_loss: 7.6203 - val_accuracy: 0.5059
Epoch 8/10
1169/1169 [==============================] - 87s 75ms/step - loss: 7.7418 - accuracy: 0.4980 - val_loss: 7.6208 - val_accuracy: 0.5059
Epoch 9/10
1169/1169 [==============================] - 87s 75ms/step - loss: 7.7437 - accuracy: 0.4980 - val_loss: 7.6208 - val_accuracy: 0.5059
Epoch 10/10
1169/1169 [==============================] - 88s 75ms/step - loss: 7.7424 - accuracy: 0.4980 - val_loss: 7.6211 - val_accuracy: 0.5059
 70%|███████   | 76/108 [12:11:36<5:32:45, 623.92s/it]Found 18697 images belonging to 2 classes.
Found 6303 images belonging to 2 classes.
Epoch 1/10
1169/1169 [==============================] - 51s 43ms/step - loss: 7.6331 - accuracy: 0.5017 - val_loss: 7.7579 - val_accuracy: 0.4941
Epoch 2/10
1169/1169 [==============================] - 50s 43ms/step - loss: 7.6356 - accuracy: 0.5020 - val_loss: 7.7574 - val_accuracy: 0.4941
Epoch 3/10
1169/1169 [==============================] - 50s 43ms/step - loss: 7.6362 - accuracy: 0.5020 - val_loss: 7.7581 - val_accuracy: 0.4941
Epoch 4/10
1169/1169 [==============================] - 50s 43ms/step - loss: 7.6362 - accuracy: 0.5020 - val_loss: 7.7577 - val_accuracy: 0.4941
Epoch 5/10
1169/1169 [==============================] - 48s 41ms/step - loss: 7.6368 - accuracy: 0.5020 - val_loss: 7.7577 - val_accuracy: 0.4941
Epoch 6/10
1169/1169 [==============================] - 47s 40ms/step - loss: 7.6349 - accuracy: 0.5020 - val_loss: 7.7577 - val_accuracy: 0.4941
Epoch 7/10
1169/1169 [==============================] - 47s 40ms/step - loss: 7.6375 - accuracy: 0.5020 - val_loss: 7.7577 - val_accuracy: 0.4941
Epoch 8/10
1169/1169 [==============================] - 47s 40ms/step - loss: 7.6349 - accuracy: 0.5020 - val_loss: 7.7582 - val_accuracy: 0.4941
Epoch 9/10
1169/1169 [==============================] - 47s 40ms/step - loss: 7.6362 - accuracy: 0.5020 - val_loss: 7.7582 - val_accuracy: 0.4941
Epoch 10/10
1169/1169 [==============================] - 47s 40ms/step - loss: 7.6368 - accuracy: 0.5020 - val_loss: 7.7577 - val_accuracy: 0.4941
 71%|███████▏  | 77/108 [12:19:41<5:00:48, 582.20s/it]Found 18697 images belonging to 2 classes.
Found 6303 images belonging to 2 classes.
Epoch 1/10
1169/1169 [==============================] - 44s 38ms/step - loss: 7.6318 - accuracy: 0.5018 - val_loss: 7.7582 - val_accuracy: 0.4941
Epoch 2/10
1169/1169 [==============================] - 44s 38ms/step - loss: 7.6368 - accuracy: 0.5020 - val_loss: 7.7577 - val_accuracy: 0.4941
Epoch 3/10
1169/1169 [==============================] - 44s 38ms/step - loss: 7.6362 - accuracy: 0.5020 - val_loss: 7.7577 - val_accuracy: 0.4941
Epoch 4/10
1169/1169 [==============================] - 44s 38ms/step - loss: 7.6349 - accuracy: 0.5020 - val_loss: 7.7579 - val_accuracy: 0.4941
Epoch 5/10
1169/1169 [==============================] - 44s 37ms/step - loss: 7.6356 - accuracy: 0.5020 - val_loss: 7.7576 - val_accuracy: 0.4941
Epoch 6/10
1169/1169 [==============================] - 44s 37ms/step - loss: 7.6343 - accuracy: 0.5020 - val_loss: 7.7582 - val_accuracy: 0.4941
Epoch 7/10
1169/1169 [==============================] - 44s 38ms/step - loss: 7.6362 - accuracy: 0.5020 - val_loss: 7.7582 - val_accuracy: 0.4941
Epoch 8/10
1169/1169 [==============================] - 44s 38ms/step - loss: 7.6368 - accuracy: 0.5020 - val_loss: 7.7582 - val_accuracy: 0.4941
Epoch 9/10
1169/1169 [==============================] - 44s 37ms/step - loss: 7.6349 - accuracy: 0.5020 - val_loss: 7.7582 - val_accuracy: 0.4941
Epoch 10/10
1169/1169 [==============================] - 44s 38ms/step - loss: 7.6356 - accuracy: 0.5020 - val_loss: 7.7582 - val_accuracy: 0.4941
 72%|███████▏  | 78/108 [12:27:02<4:29:53, 539.77s/it]Found 18697 images belonging to 2 classes.
Found 6303 images belonging to 2 classes.
Epoch 1/10
1169/1169 [==============================] - 107s 91ms/step - loss: 7.7357 - accuracy: 0.4981 - val_loss: 7.6206 - val_accuracy: 0.5059
Epoch 2/10
1169/1169 [==============================] - 104s 89ms/step - loss: 7.7424 - accuracy: 0.4980 - val_loss: 7.6208 - val_accuracy: 0.5059
Epoch 3/10
1169/1169 [==============================] - 105s 90ms/step - loss: 7.7437 - accuracy: 0.4980 - val_loss: 7.6208 - val_accuracy: 0.5059
Epoch 4/10
1169/1169 [==============================] - 105s 90ms/step - loss: 7.7418 - accuracy: 0.4980 - val_loss: 7.6208 - val_accuracy: 0.5059
Epoch 5/10
1169/1169 [==============================] - 104s 89ms/step - loss: 7.7424 - accuracy: 0.4980 - val_loss: 7.6208 - val_accuracy: 0.5059
Epoch 6/10
1169/1169 [==============================] - 106s 90ms/step - loss: 7.7431 - accuracy: 0.4980 - val_loss: 7.6208 - val_accuracy: 0.5059
Epoch 7/10
1169/1169 [==============================] - 104s 89ms/step - loss: 7.7463 - accuracy: 0.4980 - val_loss: 7.6208 - val_accuracy: 0.5059
Epoch 8/10
1169/1169 [==============================] - 104s 89ms/step - loss: 7.7412 - accuracy: 0.4980 - val_loss: 7.6208 - val_accuracy: 0.5059
Epoch 9/10
1169/1169 [==============================] - 106s 90ms/step - loss: 7.7424 - accuracy: 0.4980 - val_loss: 7.6208 - val_accuracy: 0.5059
Epoch 10/10
1169/1169 [==============================] - 106s 90ms/step - loss: 7.7437 - accuracy: 0.4980 - val_loss: 7.6208 - val_accuracy: 0.5059
 73%|███████▎  | 79/108 [12:44:33<5:35:00, 693.11s/it]Found 18697 images belonging to 2 classes.
Found 6303 images belonging to 2 classes.
Epoch 1/10
1169/1169 [==============================] - 56s 48ms/step - loss: 7.6281 - accuracy: 0.5022 - val_loss: 7.7576 - val_accuracy: 0.4941
Epoch 2/10
1169/1169 [==============================] - 56s 48ms/step - loss: 7.6349 - accuracy: 0.5020 - val_loss: 7.7587 - val_accuracy: 0.4941
Epoch 3/10
1169/1169 [==============================] - 56s 48ms/step - loss: 7.6349 - accuracy: 0.5020 - val_loss: 7.7576 - val_accuracy: 0.4941
Epoch 4/10
1169/1169 [==============================] - 56s 48ms/step - loss: 7.6381 - accuracy: 0.5020 - val_loss: 7.7576 - val_accuracy: 0.4941
Epoch 5/10
1169/1169 [==============================] - 56s 48ms/step - loss: 7.6368 - accuracy: 0.5020 - val_loss: 7.7577 - val_accuracy: 0.4941
Epoch 6/10
1169/1169 [==============================] - 56s 48ms/step - loss: 7.6362 - accuracy: 0.5020 - val_loss: 7.7579 - val_accuracy: 0.4941
Epoch 7/10
1169/1169 [==============================] - 56s 48ms/step - loss: 7.6356 - accuracy: 0.5020 - val_loss: 7.7584 - val_accuracy: 0.4941
Epoch 8/10
1169/1169 [==============================] - 56s 48ms/step - loss: 7.6368 - accuracy: 0.5020 - val_loss: 7.7574 - val_accuracy: 0.4941
Epoch 9/10
1169/1169 [==============================] - 56s 48ms/step - loss: 7.6368 - accuracy: 0.5020 - val_loss: 7.7574 - val_accuracy: 0.4941
Epoch 10/10
1169/1169 [==============================] - 56s 48ms/step - loss: 7.6349 - accuracy: 0.5020 - val_loss: 7.7577 - val_accuracy: 0.4941
 74%|███████▍  | 80/108 [12:53:54<5:05:04, 653.74s/it]Found 18697 images belonging to 2 classes.
Found 6303 images belonging to 2 classes.
Epoch 1/10
1169/1169 [==============================] - 49s 42ms/step - loss: 7.6294 - accuracy: 0.5021 - val_loss: 7.7577 - val_accuracy: 0.4941
Epoch 2/10
1169/1169 [==============================] - 50s 43ms/step - loss: 7.6362 - accuracy: 0.5020 - val_loss: 7.7574 - val_accuracy: 0.4941
Epoch 3/10
1169/1169 [==============================] - 50s 43ms/step - loss: 7.6356 - accuracy: 0.5020 - val_loss: 7.7577 - val_accuracy: 0.4941
Epoch 4/10
1169/1169 [==============================] - 50s 42ms/step - loss: 7.6356 - accuracy: 0.5020 - val_loss: 7.7576 - val_accuracy: 0.4941
Epoch 5/10
1169/1169 [==============================] - 50s 42ms/step - loss: 7.6356 - accuracy: 0.5020 - val_loss: 7.7576 - val_accuracy: 0.4941
Epoch 6/10
1169/1169 [==============================] - 50s 43ms/step - loss: 7.6349 - accuracy: 0.5020 - val_loss: 7.7576 - val_accuracy: 0.4941
Epoch 7/10
1169/1169 [==============================] - 50s 42ms/step - loss: 7.6349 - accuracy: 0.5020 - val_loss: 7.7576 - val_accuracy: 0.4941
Epoch 8/10
1169/1169 [==============================] - 49s 42ms/step - loss: 7.6362 - accuracy: 0.5020 - val_loss: 7.7576 - val_accuracy: 0.4941
Epoch 9/10
1169/1169 [==============================] - 50s 42ms/step - loss: 7.6349 - accuracy: 0.5020 - val_loss: 7.7581 - val_accuracy: 0.4941
Epoch 10/10
1169/1169 [==============================] - 50s 43ms/step - loss: 7.6349 - accuracy: 0.5020 - val_loss: 7.7581 - val_accuracy: 0.4941
 75%|███████▌  | 81/108 [13:02:12<4:33:04, 606.84s/it]Found 18697 images belonging to 2 classes.
Found 6303 images belonging to 2 classes.
Epoch 1/10
1169/1169 [==============================] - 90s 77ms/step - loss: 7.7388 - accuracy: 0.4980 - val_loss: 7.6206 - val_accuracy: 0.5059
Epoch 2/10
1169/1169 [==============================] - 90s 77ms/step - loss: 7.7444 - accuracy: 0.4980 - val_loss: 7.6210 - val_accuracy: 0.5059
Epoch 3/10
1169/1169 [==============================] - 91s 78ms/step - loss: 7.7456 - accuracy: 0.4980 - val_loss: 7.6205 - val_accuracy: 0.5059
Epoch 4/10
1169/1169 [==============================] - 88s 75ms/step - loss: 7.7450 - accuracy: 0.4980 - val_loss: 7.6208 - val_accuracy: 0.5059
Epoch 5/10
1169/1169 [==============================] - 88s 75ms/step - loss: 7.7424 - accuracy: 0.4980 - val_loss: 7.6205 - val_accuracy: 0.5059
Epoch 6/10
1169/1169 [==============================] - 89s 76ms/step - loss: 7.7456 - accuracy: 0.4980 - val_loss: 7.6203 - val_accuracy: 0.5059
Epoch 7/10
1169/1169 [==============================] - 89s 76ms/step - loss: 7.7450 - accuracy: 0.4980 - val_loss: 7.6215 - val_accuracy: 0.5059
Epoch 8/10
1169/1169 [==============================] - 87s 75ms/step - loss: 7.7431 - accuracy: 0.4980 - val_loss: 7.6208 - val_accuracy: 0.5059
Epoch 9/10
1169/1169 [==============================] - 88s 75ms/step - loss: 7.7444 - accuracy: 0.4980 - val_loss: 7.6206 - val_accuracy: 0.5059
Epoch 10/10
1169/1169 [==============================] - 88s 76ms/step - loss: 7.7418 - accuracy: 0.4980 - val_loss: 7.6203 - val_accuracy: 0.5059
 76%|███████▌  | 82/108 [13:17:01<4:59:39, 691.51s/it]Found 18697 images belonging to 2 classes.
Found 6303 images belonging to 2 classes.
Epoch 1/10
1169/1169 [==============================] - 48s 41ms/step - loss: 7.6327 - accuracy: 0.5020 - val_loss: 7.7584 - val_accuracy: 0.4941
Epoch 2/10
1169/1169 [==============================] - 47s 41ms/step - loss: 7.6362 - accuracy: 0.5020 - val_loss: 7.7584 - val_accuracy: 0.4941
Epoch 3/10
1169/1169 [==============================] - 48s 41ms/step - loss: 7.6362 - accuracy: 0.5020 - val_loss: 7.7581 - val_accuracy: 0.4941
Epoch 4/10
1169/1169 [==============================] - 48s 41ms/step - loss: 7.6356 - accuracy: 0.5020 - val_loss: 7.7573 - val_accuracy: 0.4941
Epoch 5/10
1169/1169 [==============================] - 47s 40ms/step - loss: 7.6343 - accuracy: 0.5020 - val_loss: 7.7581 - val_accuracy: 0.4941
Epoch 6/10
1169/1169 [==============================] - 47s 40ms/step - loss: 7.6362 - accuracy: 0.5020 - val_loss: 7.7576 - val_accuracy: 0.4941
Epoch 7/10
1169/1169 [==============================] - 47s 40ms/step - loss: 7.6362 - accuracy: 0.5020 - val_loss: 7.7576 - val_accuracy: 0.4941
Epoch 8/10
1169/1169 [==============================] - 47s 40ms/step - loss: 7.6362 - accuracy: 0.5020 - val_loss: 7.7577 - val_accuracy: 0.4941
Epoch 9/10
1169/1169 [==============================] - 47s 40ms/step - loss: 7.6356 - accuracy: 0.5020 - val_loss: 7.7577 - val_accuracy: 0.4941
Epoch 10/10
1169/1169 [==============================] - 47s 40ms/step - loss: 7.6356 - accuracy: 0.5020 - val_loss: 7.7581 - val_accuracy: 0.4941
 77%|███████▋  | 83/108 [13:24:55<4:20:57, 626.29s/it]Found 18697 images belonging to 2 classes.
Found 6303 images belonging to 2 classes.
Epoch 1/10
1169/1169 [==============================] - 44s 38ms/step - loss: 7.6308 - accuracy: 0.5018 - val_loss: 7.7582 - val_accuracy: 0.4941
Epoch 2/10
1169/1169 [==============================] - 44s 38ms/step - loss: 7.6343 - accuracy: 0.5020 - val_loss: 7.7573 - val_accuracy: 0.4941
Epoch 3/10
1169/1169 [==============================] - 44s 38ms/step - loss: 7.6362 - accuracy: 0.5020 - val_loss: 7.7573 - val_accuracy: 0.4941
Epoch 4/10
1169/1169 [==============================] - 44s 38ms/step - loss: 7.6362 - accuracy: 0.5020 - val_loss: 7.7579 - val_accuracy: 0.4941
Epoch 5/10
1169/1169 [==============================] - 44s 38ms/step - loss: 7.6356 - accuracy: 0.5020 - val_loss: 7.7576 - val_accuracy: 0.4941
Epoch 6/10
1169/1169 [==============================] - 44s 38ms/step - loss: 7.6368 - accuracy: 0.5020 - val_loss: 7.7576 - val_accuracy: 0.4941
Epoch 7/10
1169/1169 [==============================] - 44s 37ms/step - loss: 7.6349 - accuracy: 0.5020 - val_loss: 7.7576 - val_accuracy: 0.4941
Epoch 8/10
1169/1169 [==============================] - 44s 38ms/step - loss: 7.6356 - accuracy: 0.5020 - val_loss: 7.7579 - val_accuracy: 0.4941
Epoch 9/10
1169/1169 [==============================] - 44s 37ms/step - loss: 7.6349 - accuracy: 0.5020 - val_loss: 7.7577 - val_accuracy: 0.4941
Epoch 10/10
1169/1169 [==============================] - 44s 37ms/step - loss: 7.6356 - accuracy: 0.5020 - val_loss: 7.7577 - val_accuracy: 0.4941
 78%|███████▊  | 84/108 [13:32:16<3:48:15, 570.66s/it]Found 18697 images belonging to 2 classes.
Found 6303 images belonging to 2 classes.
Epoch 1/10
1169/1169 [==============================] - 103s 88ms/step - loss: 7.6317 - accuracy: 0.5020 - val_loss: 7.7579 - val_accuracy: 0.4941
Epoch 2/10
1169/1169 [==============================] - 102s 87ms/step - loss: 7.6375 - accuracy: 0.5020 - val_loss: 7.7581 - val_accuracy: 0.4941
Epoch 3/10
1169/1169 [==============================] - 102s 87ms/step - loss: 7.6362 - accuracy: 0.5020 - val_loss: 7.7581 - val_accuracy: 0.4941
Epoch 4/10
1169/1169 [==============================] - 102s 87ms/step - loss: 7.6362 - accuracy: 0.5020 - val_loss: 7.7584 - val_accuracy: 0.4941
Epoch 5/10
1169/1169 [==============================] - 103s 88ms/step - loss: 7.6343 - accuracy: 0.5020 - val_loss: 7.7576 - val_accuracy: 0.4941
Epoch 6/10
1169/1169 [==============================] - 103s 88ms/step - loss: 7.6368 - accuracy: 0.5020 - val_loss: 7.7582 - val_accuracy: 0.4941
Epoch 7/10
1169/1169 [==============================] - 102s 88ms/step - loss: 7.6356 - accuracy: 0.5020 - val_loss: 7.7581 - val_accuracy: 0.4941
Epoch 8/10
1169/1169 [==============================] - 102s 87ms/step - loss: 7.6356 - accuracy: 0.5020 - val_loss: 7.7581 - val_accuracy: 0.4941
Epoch 9/10
1169/1169 [==============================] - 104s 89ms/step - loss: 7.6356 - accuracy: 0.5020 - val_loss: 7.7577 - val_accuracy: 0.4941
Epoch 10/10
1169/1169 [==============================] - 103s 88ms/step - loss: 7.6362 - accuracy: 0.5020 - val_loss: 7.7577 - val_accuracy: 0.4941
 79%|███████▊  | 85/108 [13:49:23<4:31:14, 707.60s/it]Found 18697 images belonging to 2 classes.
Found 6303 images belonging to 2 classes.
Epoch 1/10
1169/1169 [==============================] - 56s 48ms/step - loss: 7.6286 - accuracy: 0.5018 - val_loss: 7.7577 - val_accuracy: 0.4941
Epoch 2/10
1169/1169 [==============================] - 56s 48ms/step - loss: 7.6336 - accuracy: 0.5020 - val_loss: 7.7577 - val_accuracy: 0.4941
Epoch 3/10
1169/1169 [==============================] - 55s 47ms/step - loss: 7.6356 - accuracy: 0.5020 - val_loss: 7.7579 - val_accuracy: 0.4941
Epoch 4/10
1169/1169 [==============================] - 55s 47ms/step - loss: 7.6356 - accuracy: 0.5020 - val_loss: 7.7581 - val_accuracy: 0.4941
Epoch 5/10
1169/1169 [==============================] - 56s 48ms/step - loss: 7.6356 - accuracy: 0.5020 - val_loss: 7.7581 - val_accuracy: 0.4941
Epoch 6/10
1169/1169 [==============================] - 55s 47ms/step - loss: 7.6362 - accuracy: 0.5020 - val_loss: 7.7577 - val_accuracy: 0.4941
Epoch 7/10
1169/1169 [==============================] - 55s 47ms/step - loss: 7.6362 - accuracy: 0.5020 - val_loss: 7.7577 - val_accuracy: 0.4941
Epoch 8/10
1169/1169 [==============================] - 55s 47ms/step - loss: 7.6356 - accuracy: 0.5020 - val_loss: 7.7579 - val_accuracy: 0.4941
Epoch 9/10
1169/1169 [==============================] - 55s 47ms/step - loss: 7.6356 - accuracy: 0.5020 - val_loss: 7.7582 - val_accuracy: 0.4941
Epoch 10/10
1169/1169 [==============================] - 55s 47ms/step - loss: 7.6356 - accuracy: 0.5020 - val_loss: 7.7576 - val_accuracy: 0.4941
 80%|███████▉  | 86/108 [13:58:36<4:02:24, 661.14s/it]Found 18697 images belonging to 2 classes.
Found 6303 images belonging to 2 classes.
Epoch 1/10
1169/1169 [==============================] - 47s 41ms/step - loss: 7.6330 - accuracy: 0.5017 - val_loss: 7.7584 - val_accuracy: 0.4941
Epoch 2/10
1169/1169 [==============================] - 48s 41ms/step - loss: 7.6362 - accuracy: 0.5020 - val_loss: 7.7584 - val_accuracy: 0.4941
Epoch 3/10
1169/1169 [==============================] - 47s 41ms/step - loss: 7.6368 - accuracy: 0.5020 - val_loss: 7.7581 - val_accuracy: 0.4941
Epoch 4/10
1169/1169 [==============================] - 47s 41ms/step - loss: 7.6349 - accuracy: 0.5020 - val_loss: 7.7581 - val_accuracy: 0.4941
Epoch 5/10
1169/1169 [==============================] - 47s 40ms/step - loss: 7.6375 - accuracy: 0.5020 - val_loss: 7.7576 - val_accuracy: 0.4941
Epoch 6/10
1169/1169 [==============================] - 48s 41ms/step - loss: 7.6349 - accuracy: 0.5020 - val_loss: 7.7577 - val_accuracy: 0.4941
Epoch 7/10
1169/1169 [==============================] - 47s 40ms/step - loss: 7.6368 - accuracy: 0.5020 - val_loss: 7.7576 - val_accuracy: 0.4941
Epoch 8/10
1169/1169 [==============================] - 47s 40ms/step - loss: 7.6375 - accuracy: 0.5020 - val_loss: 7.7576 - val_accuracy: 0.4941
Epoch 9/10
1169/1169 [==============================] - 47s 40ms/step - loss: 7.6368 - accuracy: 0.5020 - val_loss: 7.7576 - val_accuracy: 0.4941
Epoch 10/10
1169/1169 [==============================] - 47s 40ms/step - loss: 7.6356 - accuracy: 0.5020 - val_loss: 7.7576 - val_accuracy: 0.4941
 81%|████████  | 87/108 [14:06:30<3:31:44, 604.95s/it]Found 18697 images belonging to 2 classes.
Found 6303 images belonging to 2 classes.
Epoch 1/10
1169/1169 [==============================] - 86s 74ms/step - loss: 7.6321 - accuracy: 0.5020 - val_loss: 7.7577 - val_accuracy: 0.4941
Epoch 2/10
1169/1169 [==============================] - 86s 74ms/step - loss: 7.6356 - accuracy: 0.5020 - val_loss: 7.7579 - val_accuracy: 0.4941
Epoch 3/10
1169/1169 [==============================] - 85s 73ms/step - loss: 7.6343 - accuracy: 0.5020 - val_loss: 7.7579 - val_accuracy: 0.4941
Epoch 4/10
1169/1169 [==============================] - 85s 73ms/step - loss: 7.6362 - accuracy: 0.5020 - val_loss: 7.7579 - val_accuracy: 0.4941
Epoch 5/10
1169/1169 [==============================] - 86s 73ms/step - loss: 7.6362 - accuracy: 0.5020 - val_loss: 7.7579 - val_accuracy: 0.4941
Epoch 6/10
1169/1169 [==============================] - 85s 73ms/step - loss: 7.6356 - accuracy: 0.5020 - val_loss: 7.7579 - val_accuracy: 0.4941
Epoch 7/10
1169/1169 [==============================] - 85s 73ms/step - loss: 7.6356 - accuracy: 0.5020 - val_loss: 7.7579 - val_accuracy: 0.4941
Epoch 8/10
1169/1169 [==============================] - 86s 74ms/step - loss: 7.6362 - accuracy: 0.5020 - val_loss: 7.7579 - val_accuracy: 0.4941
Epoch 9/10
1169/1169 [==============================] - 87s 74ms/step - loss: 7.6375 - accuracy: 0.5020 - val_loss: 7.7579 - val_accuracy: 0.4941
Epoch 10/10
1169/1169 [==============================] - 85s 73ms/step - loss: 7.6356 - accuracy: 0.5020 - val_loss: 7.7579 - val_accuracy: 0.4941
 81%|████████▏ | 88/108 [14:20:48<3:46:57, 680.86s/it]Found 18697 images belonging to 2 classes.
Found 6303 images belonging to 2 classes.
Epoch 1/10
1169/1169 [==============================] - 48s 41ms/step - loss: 7.7372 - accuracy: 0.4979 - val_loss: 7.6206 - val_accuracy: 0.5059
Epoch 2/10
1169/1169 [==============================] - 47s 41ms/step - loss: 7.7431 - accuracy: 0.4980 - val_loss: 7.6206 - val_accuracy: 0.5059
Epoch 3/10
1169/1169 [==============================] - 48s 41ms/step - loss: 7.7431 - accuracy: 0.4980 - val_loss: 7.6211 - val_accuracy: 0.5059
Epoch 4/10
1169/1169 [==============================] - 47s 41ms/step - loss: 7.7437 - accuracy: 0.4980 - val_loss: 7.6211 - val_accuracy: 0.5059
Epoch 5/10
1169/1169 [==============================] - 47s 40ms/step - loss: 7.7450 - accuracy: 0.4980 - val_loss: 7.6208 - val_accuracy: 0.5059
Epoch 6/10
1169/1169 [==============================] - 47s 40ms/step - loss: 7.7431 - accuracy: 0.4980 - val_loss: 7.6203 - val_accuracy: 0.5059
Epoch 7/10
1169/1169 [==============================] - 47s 40ms/step - loss: 7.7418 - accuracy: 0.4980 - val_loss: 7.6210 - val_accuracy: 0.5059
Epoch 8/10
1169/1169 [==============================] - 47s 40ms/step - loss: 7.7437 - accuracy: 0.4980 - val_loss: 7.6210 - val_accuracy: 0.5059
Epoch 9/10
1169/1169 [==============================] - 47s 40ms/step - loss: 7.7437 - accuracy: 0.4980 - val_loss: 7.6206 - val_accuracy: 0.5059
Epoch 10/10
1169/1169 [==============================] - 47s 40ms/step - loss: 7.7450 - accuracy: 0.4980 - val_loss: 7.6206 - val_accuracy: 0.5059
 82%|████████▏ | 89/108 [14:28:41<3:15:53, 618.60s/it]Found 18697 images belonging to 2 classes.
Found 6303 images belonging to 2 classes.
Epoch 1/10
1169/1169 [==============================] - 45s 38ms/step - loss: 7.7391 - accuracy: 0.4977 - val_loss: 7.6205 - val_accuracy: 0.5059
Epoch 2/10
1169/1169 [==============================] - 44s 38ms/step - loss: 7.7424 - accuracy: 0.4980 - val_loss: 7.6208 - val_accuracy: 0.5059
Epoch 3/10
1169/1169 [==============================] - 44s 38ms/step - loss: 7.7444 - accuracy: 0.4980 - val_loss: 7.6210 - val_accuracy: 0.5059
Epoch 4/10
1169/1169 [==============================] - 44s 38ms/step - loss: 7.7431 - accuracy: 0.4980 - val_loss: 7.6210 - val_accuracy: 0.5059
Epoch 5/10
1169/1169 [==============================] - 44s 38ms/step - loss: 7.7444 - accuracy: 0.4980 - val_loss: 7.6205 - val_accuracy: 0.5059
Epoch 6/10
1169/1169 [==============================] - 44s 38ms/step - loss: 7.7431 - accuracy: 0.4980 - val_loss: 7.6205 - val_accuracy: 0.5059
Epoch 7/10
1169/1169 [==============================] - 44s 38ms/step - loss: 7.7424 - accuracy: 0.4980 - val_loss: 7.6206 - val_accuracy: 0.5059
Epoch 8/10
1169/1169 [==============================] - 44s 38ms/step - loss: 7.7424 - accuracy: 0.4980 - val_loss: 7.6206 - val_accuracy: 0.5059
Epoch 9/10
1169/1169 [==============================] - 44s 37ms/step - loss: 7.7444 - accuracy: 0.4980 - val_loss: 7.6206 - val_accuracy: 0.5059
Epoch 10/10
1169/1169 [==============================] - 44s 37ms/step - loss: 7.7444 - accuracy: 0.4980 - val_loss: 7.6206 - val_accuracy: 0.5059
 83%|████████▎ | 90/108 [14:36:01<2:49:33, 565.18s/it]Found 18697 images belonging to 2 classes.
Found 6303 images belonging to 2 classes.
Epoch 1/15
1169/1169 [==============================] - 100s 85ms/step - loss: 7.6281 - accuracy: 0.5022 - val_loss: 7.7581 - val_accuracy: 0.4941
Epoch 2/15
1169/1169 [==============================] - 98s 84ms/step - loss: 7.6356 - accuracy: 0.5020 - val_loss: 7.7577 - val_accuracy: 0.4941
Epoch 3/15
1169/1169 [==============================] - 98s 84ms/step - loss: 7.6381 - accuracy: 0.5020 - val_loss: 7.7579 - val_accuracy: 0.4941
Epoch 4/15
1169/1169 [==============================] - 100s 85ms/step - loss: 7.6356 - accuracy: 0.5020 - val_loss: 7.7579 - val_accuracy: 0.4941
Epoch 5/15
1169/1169 [==============================] - 99s 85ms/step - loss: 7.6356 - accuracy: 0.5020 - val_loss: 7.7577 - val_accuracy: 0.4941
Epoch 6/15
1169/1169 [==============================] - 98s 84ms/step - loss: 7.6362 - accuracy: 0.5020 - val_loss: 7.7579 - val_accuracy: 0.4941
Epoch 7/15
1169/1169 [==============================] - 99s 85ms/step - loss: 7.6343 - accuracy: 0.5020 - val_loss: 7.7579 - val_accuracy: 0.4941
Epoch 8/15
1169/1169 [==============================] - 98s 84ms/step - loss: 7.6349 - accuracy: 0.5020 - val_loss: 7.7576 - val_accuracy: 0.4941
Epoch 9/15
1169/1169 [==============================] - 99s 85ms/step - loss: 7.6356 - accuracy: 0.5020 - val_loss: 7.7577 - val_accuracy: 0.4941
Epoch 10/15
1169/1169 [==============================] - 99s 85ms/step - loss: 7.6368 - accuracy: 0.5020 - val_loss: 7.7579 - val_accuracy: 0.4941
Epoch 11/15
1169/1169 [==============================] - 101s 86ms/step - loss: 7.6368 - accuracy: 0.5020 - val_loss: 7.7577 - val_accuracy: 0.4941
Epoch 12/15
1169/1169 [==============================] - 101s 86ms/step - loss: 7.6362 - accuracy: 0.5020 - val_loss: 7.7581 - val_accuracy: 0.4941
Epoch 13/15
1169/1169 [==============================] - 99s 84ms/step - loss: 7.6362 - accuracy: 0.5020 - val_loss: 7.7574 - val_accuracy: 0.4941
Epoch 14/15
1169/1169 [==============================] - 98s 84ms/step - loss: 7.6349 - accuracy: 0.5020 - val_loss: 7.7576 - val_accuracy: 0.4941
Epoch 15/15
1169/1169 [==============================] - 101s 87ms/step - loss: 7.6336 - accuracy: 0.5020 - val_loss: 7.7576 - val_accuracy: 0.4941
 84%|████████▍ | 91/108 [15:00:50<3:58:37, 842.18s/it]Found 18697 images belonging to 2 classes.
Found 6303 images belonging to 2 classes.
Epoch 1/15
1169/1169 [==============================] - 54s 46ms/step - loss: 7.6303 - accuracy: 0.5021 - val_loss: 7.7576 - val_accuracy: 0.4941
Epoch 2/15
1169/1169 [==============================] - 54s 46ms/step - loss: 7.6362 - accuracy: 0.5020 - val_loss: 7.7581 - val_accuracy: 0.4941
Epoch 3/15
1169/1169 [==============================] - 54s 46ms/step - loss: 7.6356 - accuracy: 0.5020 - val_loss: 7.7577 - val_accuracy: 0.4941
Epoch 4/15
1169/1169 [==============================] - 54s 46ms/step - loss: 7.6349 - accuracy: 0.5020 - val_loss: 7.7581 - val_accuracy: 0.4941
Epoch 5/15
1169/1169 [==============================] - 54s 46ms/step - loss: 7.6349 - accuracy: 0.5020 - val_loss: 7.7571 - val_accuracy: 0.4941
Epoch 6/15
1169/1169 [==============================] - 54s 46ms/step - loss: 7.6368 - accuracy: 0.5020 - val_loss: 7.7577 - val_accuracy: 0.4941
Epoch 7/15
1169/1169 [==============================] - 53s 46ms/step - loss: 7.6349 - accuracy: 0.5020 - val_loss: 7.7579 - val_accuracy: 0.4941
Epoch 8/15
1169/1169 [==============================] - 53s 46ms/step - loss: 7.6375 - accuracy: 0.5020 - val_loss: 7.7581 - val_accuracy: 0.4941
Epoch 9/15
1169/1169 [==============================] - 53s 46ms/step - loss: 7.6368 - accuracy: 0.5020 - val_loss: 7.7581 - val_accuracy: 0.4941
Epoch 10/15
1169/1169 [==============================] - 53s 46ms/step - loss: 7.6343 - accuracy: 0.5020 - val_loss: 7.7579 - val_accuracy: 0.4941
Epoch 11/15
1169/1169 [==============================] - 53s 46ms/step - loss: 7.6362 - accuracy: 0.5020 - val_loss: 7.7582 - val_accuracy: 0.4941
Epoch 12/15
1169/1169 [==============================] - 54s 46ms/step - loss: 7.6362 - accuracy: 0.5020 - val_loss: 7.7574 - val_accuracy: 0.4941
Epoch 13/15
1169/1169 [==============================] - 54s 46ms/step - loss: 7.6349 - accuracy: 0.5020 - val_loss: 7.7574 - val_accuracy: 0.4941
Epoch 14/15
1169/1169 [==============================] - 53s 46ms/step - loss: 7.6356 - accuracy: 0.5020 - val_loss: 7.7576 - val_accuracy: 0.4941
Epoch 15/15
1169/1169 [==============================] - 53s 46ms/step - loss: 7.6336 - accuracy: 0.5020 - val_loss: 7.7576 - val_accuracy: 0.4941
 85%|████████▌ | 92/108 [15:14:16<3:41:40, 831.28s/it]Found 18697 images belonging to 2 classes.
Found 6303 images belonging to 2 classes.
Epoch 1/15
1169/1169 [==============================] - 45s 39ms/step - loss: 7.6322 - accuracy: 0.5021 - val_loss: 7.7582 - val_accuracy: 0.4941
Epoch 2/15
1169/1169 [==============================] - 46s 39ms/step - loss: 7.6349 - accuracy: 0.5020 - val_loss: 7.7582 - val_accuracy: 0.4941
Epoch 3/15
1169/1169 [==============================] - 45s 39ms/step - loss: 7.6349 - accuracy: 0.5020 - val_loss: 7.7579 - val_accuracy: 0.4941
Epoch 4/15
1169/1169 [==============================] - 45s 39ms/step - loss: 7.6356 - accuracy: 0.5020 - val_loss: 7.7579 - val_accuracy: 0.4941
Epoch 5/15
1169/1169 [==============================] - 45s 39ms/step - loss: 7.6356 - accuracy: 0.5020 - val_loss: 7.7579 - val_accuracy: 0.4941
Epoch 6/15
1169/1169 [==============================] - 45s 39ms/step - loss: 7.6349 - accuracy: 0.5020 - val_loss: 7.7574 - val_accuracy: 0.4941
Epoch 7/15
1169/1169 [==============================] - 45s 39ms/step - loss: 7.6356 - accuracy: 0.5020 - val_loss: 7.7582 - val_accuracy: 0.4941
Epoch 8/15
1169/1169 [==============================] - 45s 39ms/step - loss: 7.6356 - accuracy: 0.5020 - val_loss: 7.7584 - val_accuracy: 0.4941
Epoch 9/15
1169/1169 [==============================] - 45s 39ms/step - loss: 7.6362 - accuracy: 0.5020 - val_loss: 7.7577 - val_accuracy: 0.4941
Epoch 10/15
1169/1169 [==============================] - 45s 39ms/step - loss: 7.6368 - accuracy: 0.5020 - val_loss: 7.7577 - val_accuracy: 0.4941
Epoch 11/15
1169/1169 [==============================] - 45s 39ms/step - loss: 7.6356 - accuracy: 0.5020 - val_loss: 7.7577 - val_accuracy: 0.4941
Epoch 12/15
1169/1169 [==============================] - 45s 39ms/step - loss: 7.6368 - accuracy: 0.5020 - val_loss: 7.7577 - val_accuracy: 0.4941
Epoch 13/15
1169/1169 [==============================] - 45s 39ms/step - loss: 7.6368 - accuracy: 0.5020 - val_loss: 7.7577 - val_accuracy: 0.4941
Epoch 14/15
1169/1169 [==============================] - 45s 39ms/step - loss: 7.6356 - accuracy: 0.5020 - val_loss: 7.7577 - val_accuracy: 0.4941
Epoch 15/15
1169/1169 [==============================] - 45s 39ms/step - loss: 7.6375 - accuracy: 0.5020 - val_loss: 7.7577 - val_accuracy: 0.4941
 86%|████████▌ | 93/108 [15:25:36<3:16:27, 785.81s/it]Found 18697 images belonging to 2 classes.
Found 6303 images belonging to 2 classes.
Epoch 1/15
1169/1169 [==============================] - 82s 70ms/step - loss: 7.7367 - accuracy: 0.4980 - val_loss: 7.6210 - val_accuracy: 0.5059
Epoch 2/15
1169/1169 [==============================] - 82s 70ms/step - loss: 7.7424 - accuracy: 0.4980 - val_loss: 7.6211 - val_accuracy: 0.5059
Epoch 3/15
1169/1169 [==============================] - 81s 69ms/step - loss: 7.7424 - accuracy: 0.4980 - val_loss: 7.6203 - val_accuracy: 0.5059
Epoch 4/15
1169/1169 [==============================] - 81s 69ms/step - loss: 7.7424 - accuracy: 0.4980 - val_loss: 7.6205 - val_accuracy: 0.5059
Epoch 5/15
1169/1169 [==============================] - 82s 70ms/step - loss: 7.7431 - accuracy: 0.4980 - val_loss: 7.6203 - val_accuracy: 0.5059
Epoch 6/15
1169/1169 [==============================] - 81s 70ms/step - loss: 7.7431 - accuracy: 0.4980 - val_loss: 7.6208 - val_accuracy: 0.5059
Epoch 7/15
1169/1169 [==============================] - 85s 73ms/step - loss: 7.7424 - accuracy: 0.4980 - val_loss: 7.6208 - val_accuracy: 0.5059
Epoch 8/15
1169/1169 [==============================] - 83s 71ms/step - loss: 7.7456 - accuracy: 0.4980 - val_loss: 7.6208 - val_accuracy: 0.5059
Epoch 9/15
1169/1169 [==============================] - 80s 69ms/step - loss: 7.7437 - accuracy: 0.4980 - val_loss: 7.6208 - val_accuracy: 0.5059
Epoch 10/15
1169/1169 [==============================] - 82s 70ms/step - loss: 7.7437 - accuracy: 0.4980 - val_loss: 7.6208 - val_accuracy: 0.5059
Epoch 11/15
1169/1169 [==============================] - 82s 70ms/step - loss: 7.7437 - accuracy: 0.4980 - val_loss: 7.6208 - val_accuracy: 0.5059
Epoch 12/15
1169/1169 [==============================] - 81s 69ms/step - loss: 7.7424 - accuracy: 0.4980 - val_loss: 7.6208 - val_accuracy: 0.5059
Epoch 13/15
1169/1169 [==============================] - 82s 70ms/step - loss: 7.7437 - accuracy: 0.4980 - val_loss: 7.6208 - val_accuracy: 0.5059
Epoch 14/15
1169/1169 [==============================] - 81s 69ms/step - loss: 7.7450 - accuracy: 0.4980 - val_loss: 7.6210 - val_accuracy: 0.5059
Epoch 15/15
1169/1169 [==============================] - 80s 69ms/step - loss: 7.7424 - accuracy: 0.4980 - val_loss: 7.6210 - val_accuracy: 0.5059
 87%|████████▋ | 94/108 [15:46:04<3:34:20, 918.63s/it]Found 18697 images belonging to 2 classes.
Found 6303 images belonging to 2 classes.
Epoch 1/15
1169/1169 [==============================] - 48s 41ms/step - loss: 7.6326 - accuracy: 0.5017 - val_loss: 7.7579 - val_accuracy: 0.4941
Epoch 2/15
1169/1169 [==============================] - 48s 41ms/step - loss: 7.6368 - accuracy: 0.5020 - val_loss: 7.7576 - val_accuracy: 0.4941
Epoch 3/15
1169/1169 [==============================] - 47s 41ms/step - loss: 7.6362 - accuracy: 0.5020 - val_loss: 7.7577 - val_accuracy: 0.4941
Epoch 4/15
1169/1169 [==============================] - 47s 40ms/step - loss: 7.6356 - accuracy: 0.5020 - val_loss: 7.7581 - val_accuracy: 0.4941
Epoch 5/15
1169/1169 [==============================] - 47s 40ms/step - loss: 7.6356 - accuracy: 0.5020 - val_loss: 7.7581 - val_accuracy: 0.4941
Epoch 6/15
1169/1169 [==============================] - 47s 40ms/step - loss: 7.6375 - accuracy: 0.5020 - val_loss: 7.7577 - val_accuracy: 0.4941
Epoch 7/15
1169/1169 [==============================] - 47s 40ms/step - loss: 7.6362 - accuracy: 0.5020 - val_loss: 7.7579 - val_accuracy: 0.4941
Epoch 8/15
1169/1169 [==============================] - 47s 40ms/step - loss: 7.6381 - accuracy: 0.5020 - val_loss: 7.7577 - val_accuracy: 0.4941
Epoch 9/15
1169/1169 [==============================] - 47s 40ms/step - loss: 7.6349 - accuracy: 0.5020 - val_loss: 7.7577 - val_accuracy: 0.4941
Epoch 10/15
1169/1169 [==============================] - 47s 40ms/step - loss: 7.6362 - accuracy: 0.5020 - val_loss: 7.7577 - val_accuracy: 0.4941
Epoch 11/15
1169/1169 [==============================] - 46s 40ms/step - loss: 7.6356 - accuracy: 0.5020 - val_loss: 7.7576 - val_accuracy: 0.4941
Epoch 12/15
1169/1169 [==============================] - 46s 40ms/step - loss: 7.6349 - accuracy: 0.5020 - val_loss: 7.7576 - val_accuracy: 0.4941
Epoch 13/15
1169/1169 [==============================] - 47s 40ms/step - loss: 7.6368 - accuracy: 0.5020 - val_loss: 7.7576 - val_accuracy: 0.4941
Epoch 14/15
1169/1169 [==============================] - 46s 40ms/step - loss: 7.6356 - accuracy: 0.5020 - val_loss: 7.7577 - val_accuracy: 0.4941
Epoch 15/15
1169/1169 [==============================] - 47s 40ms/step - loss: 7.6349 - accuracy: 0.5020 - val_loss: 7.7577 - val_accuracy: 0.4941
…
, "strides": [2, 2], "data_format": "channels_last"}}, {"class_name": "Conv2D", "config": {"name": "conv2d_1", "trainable": true, "dtype": "float32", "filters": 64, "kernel_size": [3, 3], "strides": [1, 1], "padding": "same", "data_format": "channels_last", "dilation_rate": [1, 1], "activation": "elu", "use_bias": true, "kernel_initializer": {"class_name": "VarianceScaling", "config": {"scale": 2.0, "mode": "fan_in", "distribution": "uniform", "seed": null}}, "bias_initializer": {"class_name": "Zeros", "config": {}}, "kernel_regularizer": null, "bias_regularizer": null, "activity_regularizer": null, "kernel_constraint": null, "bias_constraint": null}}, {"class_name": "MaxPooling2D", "config": {"name": "max_pooling2d_1", "trainable": true, "dtype": "float32", "pool_size": [2, 2], "padding": "valid", "strides": [2, 2], "data_format": "channels_last"}}, {"class_name": "Conv2D", "config": {"name": "conv2d_2", "trainable": true, "dtype": "float32", "filters": 128, "kernel_size": [3, 3], "strides": [1, 1], "padding": "same", "data_format": "channels_last", "dilation_rate": [1, 1], "activation": "elu", "use_bias": true, "kernel_initializer": {"class_name": "VarianceScaling", "config": {"scale": 2.0, "mode": "fan_in", "distribution": "uniform", "seed": null}}, "bias_initializer": {"class_name": "Zeros", "config": {}}, "kernel_regularizer": null, "bias_regularizer": null, "activity_regularizer": null, "kernel_constraint": null, "bias_constraint": null}}, {"class_name": "MaxPooling2D", "config": {"name": "max_pooling2d_2", "trainable": true, "dtype": "float32", "pool_size": [2, 2], "padding": "valid", "strides": [2, 2], "data_format": "channels_last"}}, {"class_name": "Flatten", "config": {"name": "flatten", "trainable": true, "dtype": "float32", "data_format": "channels_last"}}, {"class_name": "Dense", "config": {"name": "dense", "trainable": true, "dtype": "float32", "units": 128, "activation": "elu", "use_bias": true, "kernel_initializer": {"class_name": "VarianceScaling", "config": {"scale": 2.0, "mode": "fan_in", "distribution": "uniform", "seed": null}}, "bias_initializer": {"class_name": "Zeros", "config": {}}, "kernel_regularizer": null, "bias_regularizer": null, "activity_regularizer": null, "kernel_constraint": null, "bias_constraint": null}}, {"class_name": "Dense", "config": {"name": "dense_1", "trainable": true, "dtype": "float32", "units": 1, "activation": "sigmoid", "use_bias": true, "kernel_initializer": {"class_name": "GlorotUniform", "config": {"seed": null}}, "bias_initializer": {"class_name": "Zeros", "config": {}}, "kernel_regularizer": null, "bias_regularizer": null, "activity_regularizer": null, "kernel_constraint": null, "bias_constraint": null}}]}, "keras_version": "2.2.4-tf", "backend": "tensorflow"}',
 '{"class_name": "Sequential", "config": {"name": "sequential", "layers": [{"class_name": "Conv2D", "config": {"name": "conv2d", "trainable": true, "batch_input_shape": [null, 64, 64, 3], "dtype": "float32", "filters": 32, "kernel_size": [3, 3], "strides": [1, 1], "padding": "same", "data_format": "channels_last", "dilation_rate": [1, 1], "activation": "elu", "use_bias": true, "kernel_initializer": {"class_name": "VarianceScaling", "config": {"scale": 2.0, "mode": "fan_in", "distribution": "uniform", "seed": null}}, "bias_initializer": {"class_name": "Zeros", "config": {}}, "kernel_regularizer": null, "bias_regularizer": null, "activity_regularizer": null, "kernel_constraint": null, "bias_constraint": null}}, {"class_name": "MaxPooling2D", "config": {"name": "max_pooling2d", "trainable": true, "dtype": "float32", "pool_size": [2, 2], "padding": "valid", "strides": [2, 2], "data_format": "channels_last"}}, {"class_name": "Conv2D", "config": {"name": "conv2d_1", "trainable": true, "dtype": "float32", "filters": 64, "kernel_size": [3, 3], "strides": [1, 1], "padding": "same", "data_format": "channels_last", "dilation_rate": [1, 1], "activation": "elu", "use_bias": true, "kernel_initializer": {"class_name": "VarianceScaling", "config": {"scale": 2.0, "mode": "fan_in", "distribution": "uniform", "seed": null}}, "bias_initializer": {"class_name": "Zeros", "config": {}}, "kernel_regularizer": null, "bias_regularizer": null, "activity_regularizer": null, "kernel_constraint": null, "bias_constraint": null}}, {"class_name": "MaxPooling2D", "config": {"name": "max_pooling2d_1", "trainable": true, "dtype": "float32", "pool_size": [2, 2], "padding": "valid", "strides": [2, 2], "data_format": "channels_last"}}, {"class_name": "Conv2D", "config": {"name": "conv2d_2", "trainable": true, "dtype": "float32", "filters": 128, "kernel_size": [3, 3], "strides": [1, 1], "padding": "same", "data_format": "channels_last", "dilation_rate": [1, 1], "activation": "elu", "use_bias": true, "kernel_initializer": {"class_name": "VarianceScaling", "config": {"scale": 2.0, "mode": "fan_in", "distribution": "uniform", "seed": null}}, "bias_initializer": {"class_name": "Zeros", "config": {}}, "kernel_regularizer": null, "bias_regularizer": null, "activity_regularizer": null, "kernel_constraint": null, "bias_constraint": null}}, {"class_name": "MaxPooling2D", "config": {"name": "max_pooling2d_2", "trainable": true, "dtype": "float32", "pool_size": [2, 2], "padding": "valid", "strides": [2, 2], "data_format": "channels_last"}}, {"class_name": "Flatten", "config": {"name": "flatten", "trainable": true, "dtype": "float32", "data_format": "channels_last"}}, {"class_name": "Dense", "config": {"name": "dense", "trainable": true, "dtype": "float32", "units": 128, "activation": "elu", "use_bias": true, "kernel_initializer": {"class_name": "VarianceScaling", "config": {"scale": 2.0, "mode": "fan_in", "distribution": "uniform", "seed": null}}, "bias_initializer": {"class_name": "Zeros", "config": {}}, "kernel_regularizer": null, "bias_regularizer": null, "activity_regularizer": null, "kernel_constraint": null, "bias_constraint": null}}, {"class_name": "Dense", "config": {"name": "dense_1", "trainable": true, "dtype": "float32", "units": 1, "activation": "sigmoid", "use_bias": true, "kernel_initializer": {"class_name": "GlorotUniform", "config": {"seed": null}}, "bias_initializer": {"class_name": "Zeros", "config": {}}, "kernel_regularizer": null, "bias_regularizer": null, "activity_regularizer": null, "kernel_constraint": null, "bias_constraint": null}}]}, "keras_version": "2.2.4-tf", "backend": "tensorflow"}',
 '{"class_name": "Sequential", "config": {"name": "sequential", "layers": [{"class_name": "Conv2D", "config": {"name": "conv2d", "trainable": true, "batch_input_shape": [null, 200, 200, 3], "dtype": "float32", "filters": 32, "kernel_size": [4, 4], "strides": [1, 1], "padding": "same", "data_format": "channels_last", "dilation_rate": [1, 1], "activation": "elu", "use_bias": true, "kernel_initializer": {"class_name": "VarianceScaling", "config": {"scale": 2.0, "mode": "fan_in", "distribution": "uniform", "seed": null}}, "bias_initializer": {"class_name": "Zeros", "config": {}}, "kernel_regularizer": null, "bias_regularizer": null, "activity_regularizer": null, "kernel_constraint": null, "bias_constraint": null}}, {"class_name": "MaxPooling2D", "config": {"name": "max_pooling2d", "trainable": true, "dtype": "float32", "pool_size": [2, 2], "padding": "valid", "strides": [2, 2], "data_format": "channels_last"}}, {"class_name": "Conv2D", "config": {"name": "conv2d_1", "trainable": true, "dtype": "float32", "filters": 64, "kernel_size": [4, 4], "strides": [1, 1], "padding": "same", "data_format": "channels_last", "dilation_rate": [1, 1], "activation": "elu", "use_bias": true, "kernel_initializer": {"class_name": "VarianceScaling", "config": {"scale": 2.0, "mode": "fan_in", "distribution": "uniform", "seed": null}}, "bias_initializer": {"class_name": "Zeros", "config": {}}, "kernel_regularizer": null, "bias_regularizer": null, "activity_regularizer": null, "kernel_constraint": null, "bias_constraint": null}}, {"class_name": "MaxPooling2D", "config": {"name": "max_pooling2d_1", "trainable": true, "dtype": "float32", "pool_size": [2, 2], "padding": "valid", "strides": [2, 2], "data_format": "channels_last"}}, {"class_name": "Conv2D", "config": {"name": "conv2d_2", "trainable": true, "dtype": "float32", "filters": 128, "kernel_size": [4, 4], "strides": [1, 1], "padding": "same", "data_format": "channels_last", "dilation_rate": [1, 1], "activation": "elu", "use_bias": true, "kernel_initializer": {"class_name": "VarianceScaling", "config": {"scale": 2.0, "mode": "fan_in", "distribution": "uniform", "seed": null}}, "bias_initializer": {"class_name": "Zeros", "config": {}}, "kernel_regularizer": null, "bias_regularizer": null, "activity_regularizer": null, "kernel_constraint": null, "bias_constraint": null}}, {"class_name": "MaxPooling2D", "config": {"name": "max_pooling2d_2", "trainable": true, "dtype": "float32", "pool_size": [2, 2], "padding": "valid", "strides": [2, 2], "data_format": "channels_last"}}, {"class_name": "Flatten", "config": {"name": "flatten", "trainable": true, "dtype": "float32", "data_format": "channels_last"}}, {"class_name": "Dense", "config": {"name": "dense", "trainable": true, "dtype": "float32", "units": 128, "activation": "elu", "use_bias": true, "kernel_initializer": {"class_name": "VarianceScaling", "config": {"scale": 2.0, "mode": "fan_in", "distribution": "uniform", "seed": null}}, "bias_initializer": {"class_name": "Zeros", "config": {}}, "kernel_regularizer": null, "bias_regularizer": null, "activity_regularizer": null, "kernel_constraint": null, "bias_constraint": null}}, {"class_name": "Dense", "config": {"name": "dense_1", "trainable": true, "dtype": "float32", "units": 1, "activation": "sigmoid", "use_bias": true, "kernel_initializer": {"class_name": "GlorotUniform", "config": {"seed": null}}, "bias_initializer": {"class_name": "Zeros", "config": {}}, "kernel_regularizer": null, "bias_regularizer": null, "activity_regularizer": null, "kernel_constraint": null, "bias_constraint": null}}]}, "keras_version": "2.2.4-tf", "backend": "tensorflow"}',
 '{"class_name": "Sequential", "config": {"name": "sequential", "layers": [{"class_name": "Conv2D", "config": {"name": "conv2d", "trainable": true, "batch_input_shape": [null, 100, 100, 3], "dtype": "float32", "filters": 32, "kernel_size": [4, 4], "strides": [1, 1], "padding": "same", "data_format": "channels_last", "dilation_rate": [1, 1], "activation": "elu", "use_bias": true, "kernel_initializer": {"class_name": "VarianceScaling", "config": {"scale": 2.0, "mode": "fan_in", "distribution": "uniform", "seed": null}}, "bias_initializer": {"class_name": "Zeros", "config": {}}, "kernel_regularizer": null, "bias_regularizer": null, "activity_regularizer": null, "kernel_constraint": null, "bias_constraint": null}}, {"class_name": "MaxPooling2D", "config": {"name": "max_pooling2d", "trainable": true, "dtype": "float32", "pool_size": [2, 2], "padding": "valid", "strides": [2, 2], "data_format": "channels_last"}}, {"class_name": "Conv2D", "config": {"name": "conv2d_1", "trainable": true, "dtype": "float32", "filters": 64, "kernel_size": [4, 4], "strides": [1, 1], "padding": "same", "data_format": "channels_last", "dilation_rate": [1, 1], "activation": "elu", "use_bias": true, "kernel_initializer": {"class_name": "VarianceScaling", "config": {"scale": 2.0, "mode": "fan_in", "distribution": "uniform", "seed": null}}, "bias_initializer": {"class_name": "Zeros", "config": {}}, "kernel_regularizer": null, "bias_regularizer": null, "activity_regularizer": null, "kernel_constraint": null, "bias_constraint": null}}, {"class_name": "MaxPooling2D", "config": {"name": "max_pooling2d_1", "trainable": true, "dtype": "float32", "pool_size": [2, 2], "padding": "valid", "strides": [2, 2], "data_format": "channels_last"}}, {"class_name": "Conv2D", "config": {"name": "conv2d_2", "trainable": true, "dtype": "float32", "filters": 128, "kernel_size": [4, 4], "strides": [1, 1], "padding": "same", "data_format": "channels_last", "dilation_rate": [1, 1], "activation": "elu", "use_bias": true, "kernel_initializer": {"class_name": "VarianceScaling", "config": {"scale": 2.0, "mode": "fan_in", "distribution": "uniform", "seed": null}}, "bias_initializer": {"class_name": "Zeros", "config": {}}, "kernel_regularizer": null, "bias_regularizer": null, "activity_regularizer": null, "kernel_constraint": null, "bias_constraint": null}}, {"class_name": "MaxPooling2D", "config": {"name": "max_pooling2d_2", "trainable": true, "dtype": "float32", "pool_size": [2, 2], "padding": "valid", "strides": [2, 2], "data_format": "channels_last"}}, {"class_name": "Flatten", "config": {"name": "flatten", "trainable": true, "dtype": "float32", "data_format": "channels_last"}}, {"class_name": "Dense", "config": {"name": "dense", "trainable": true, "dtype": "float32", "units": 128, "activation": "elu", "use_bias": true, "kernel_initializer": {"class_name": "VarianceScaling", "config": {"scale": 2.0, "mode": "fan_in", "distribution": "uniform", "seed": null}}, "bias_initializer": {"class_name": "Zeros", "config": {}}, "kernel_regularizer": null, "bias_regularizer": null, "activity_regularizer": null, "kernel_constraint": null, "bias_constraint": null}}, {"class_name": "Dense", "config": {"name": "dense_1", "trainable": true, "dtype": "float32", "units": 1, "activation": "sigmoid", "use_bias": true, "kernel_initializer": {"class_name": "GlorotUniform", "config": {"seed": null}}, "bias_initializer": {"class_name": "Zeros", "config": {}}, "kernel_regularizer": null, "bias_regularizer": null, "activity_regularizer": null, "kernel_constraint": null, "bias_constraint": null}}]}, "keras_version": "2.2.4-tf", "backend": "tensorflow"}',
 '{"class_name": "Sequential", "config": {"name": "sequential", "layers": [{"class_name": "Conv2D", "config": {"name": "conv2d", "trainable": true, "batch_input_shape": [null, 64, 64, 3], "dtype": "float32", "filters": 32, "kernel_size": [4, 4], "strides": [1, 1], "padding": "same", "data_format": "channels_last", "dilation_rate": [1, 1], "activation": "elu", "use_bias": true, "kernel_initializer": {"class_name": "VarianceScaling", "config": {"scale": 2.0, "mode": "fan_in", "distribution": "uniform", "seed": null}}, "bias_initializer": {"class_name": "Zeros", "config": {}}, "kernel_regularizer": null, "bias_regularizer": null, "activity_regularizer": null, "kernel_constraint": null, "bias_constraint": null}}, {"class_name": "MaxPooling2D", "config": {"name": "max_pooling2d", "trainable": true, "dtype": "float32", "pool_size": [2, 2], "padding": "valid", "strides": [2, 2], "data_format": "channels_last"}}, {"class_name": "Conv2D", "config": {"name": "conv2d_1", "trainable": true, "dtype": "float32", "filters": 64, "kernel_size": [4, 4], "strides": [1, 1], "padding": "same", "data_format": "channels_last", "dilation_rate": [1, 1], "activation": "elu", "use_bias": true, "kernel_initializer": {"class_name": "VarianceScaling", "config": {"scale": 2.0, "mode": "fan_in", "distribution": "uniform", "seed": null}}, "bias_initializer": {"class_name": "Zeros", "config": {}}, "kernel_regularizer": null, "bias_regularizer": null, "activity_regularizer": null, "kernel_constraint": null, "bias_constraint": null}}, {"class_name": "MaxPooling2D", "config": {"name": "max_pooling2d_1", "trainable": true, "dtype": "float32", "pool_size": [2, 2], "padding": "valid", "strides": [2, 2], "data_format": "channels_last"}}, {"class_name": "Conv2D", "config": {"name": "conv2d_2", "trainable": true, "dtype": "float32", "filters": 128, "kernel_size": [4, 4], "strides": [1, 1], "padding": "same", "data_format": "channels_last", "dilation_rate": [1, 1], "activation": "elu", "use_bias": true, "kernel_initializer": {"class_name": "VarianceScaling", "config": {"scale": 2.0, "mode": "fan_in", "distribution": "uniform", "seed": null}}, "bias_initializer": {"class_name": "Zeros", "config": {}}, "kernel_regularizer": null, "bias_regularizer": null, "activity_regularizer": null, "kernel_constraint": null, "bias_constraint": null}}, {"class_name": "MaxPooling2D", "config": {"name": "max_pooling2d_2", "trainable": true, "dtype": "float32", "pool_size": [2, 2], "padding": "valid", "strides": [2, 2], "data_format": "channels_last"}}, {"class_name": "Flatten", "config": {"name": "flatten", "trainable": true, "dtype": "float32", "data_format": "channels_last"}}, {"class_name": "Dense", "config": {"name": "dense", "trainable": true, "dtype": "float32", "units": 128, "activation": "elu", "use_bias": true, "kernel_initializer": {"class_name": "VarianceScaling", "config": {"scale": 2.0, "mode": "fan_in", "distribution": "uniform", "seed": null}}, "bias_initializer": {"class_name": "Zeros", "config": {}}, "kernel_regularizer": null, "bias_regularizer": null, "activity_regularizer": null, "kernel_constraint": null, "bias_constraint": null}}, {"class_name": "Dense", "config": {"name": "dense_1", "trainable": true, "dtype": "float32", "units": 1, "activation": "sigmoid", "use_bias": true, "kernel_initializer": {"class_name": "GlorotUniform", "config": {"seed": null}}, "bias_initializer": {"class_name": "Zeros", "config": {}}, "kernel_regularizer": null, "bias_regularizer": null, "activity_regularizer": null, "kernel_constraint": null, "bias_constraint": null}}]}, "keras_version": "2.2.4-tf", "backend": "tensorflow"}',
 '{"class_name": "Sequential", "config": {"name": "sequential", "layers": [{"class_name": "Conv2D", "config": {"name": "conv2d", "trainable": true, "batch_input_shape": [null, 200, 200, 3], "dtype": "float32", "filters": 32, "kernel_size": [4, 4], "strides": [1, 1], "padding": "same", "data_format": "channels_last", "dilation_rate": [1, 1], "activation": "elu", "use_bias": true, "kernel_initializer": {"class_name": "VarianceScaling", "config": {"scale": 2.0, "mode": "fan_in", "distribution": "uniform", "seed": null}}, "bias_initializer": {"class_name": "Zeros", "config": {}}, "kernel_regularizer": null, "bias_regularizer": null, "activity_regularizer": null, "kernel_constraint": null, "bias_constraint": null}}, {"class_name": "MaxPooling2D", "config": {"name": "max_pooling2d", "trainable": true, "dtype": "float32", "pool_size": [2, 2], "padding": "valid", "strides": [2, 2], "data_format": "channels_last"}}, {"class_name": "Conv2D", "config": {"name": "conv2d_1", "trainable": true, "dtype": "float32", "filters": 64, "kernel_size": [4, 4], "strides": [1, 1], "padding": "same", "data_format": "channels_last", "dilation_rate": [1, 1], "activation": "elu", "use_bias": true, "kernel_initializer": {"class_name": "VarianceScaling", "config": {"scale": 2.0, "mode": "fan_in", "distribution": "uniform", "seed": null}}, "bias_initializer": {"class_name": "Zeros", "config": {}}, "kernel_regularizer": null, "bias_regularizer": null, "activity_regularizer": null, "kernel_constraint": null, "bias_constraint": null}}, {"class_name": "MaxPooling2D", "config": {"name": "max_pooling2d_1", "trainable": true, "dtype": "float32", "pool_size": [2, 2], "padding": "valid", "strides": [2, 2], "data_format": "channels_last"}}, {"class_name": "Conv2D", "config": {"name": "conv2d_2", "trainable": true, "dtype": "float32", "filters": 128, "kernel_size": [4, 4], "strides": [1, 1], "padding": "same", "data_format": "channels_last", "dilation_rate": [1, 1], "activation": "elu", "use_bias": true, "kernel_initializer": {"class_name": "VarianceScaling", "config": {"scale": 2.0, "mode": "fan_in", "distribution": "uniform", "seed": null}}, "bias_initializer": {"class_name": "Zeros", "config": {}}, "kernel_regularizer": null, "bias_regularizer": null, "activity_regularizer": null, "kernel_constraint": null, "bias_constraint": null}}, {"class_name": "MaxPooling2D", "config": {"name": "max_pooling2d_2", "trainable": true, "dtype": "float32", "pool_size": [2, 2], "padding": "valid", "strides": [2, 2], "data_format": "channels_last"}}, {"class_name": "Flatten", "config": {"name": "flatten", "trainable": true, "dtype": "float32", "data_format": "channels_last"}}, {"class_name": "Dense", "config": {"name": "dense", "trainable": true, "dtype": "float32", "units": 128, "activation": "elu", "use_bias": true, "kernel_initializer": {"class_name": "VarianceScaling", "config": {"scale": 2.0, "mode": "fan_in", "distribution": "uniform", "seed": null}}, "bias_initializer": {"class_name": "Zeros", "config": {}}, "kernel_regularizer": null, "bias_regularizer": null, "activity_regularizer": null, "kernel_constraint": null, "bias_constraint": null}}, {"class_name": "Dense", "config": {"name": "dense_1", "trainable": true, "dtype": "float32", "units": 1, "activation": "sigmoid", "use_bias": true, "kernel_initializer": {"class_name": "GlorotUniform", "config": {"seed": null}}, "bias_initializer": {"class_name": "Zeros", "config": {}}, "kernel_regularizer": null, "bias_regularizer": null, "activity_regularizer": null, "kernel_constraint": null, "bias_constraint": null}}]}, "keras_version": "2.2.4-tf", "backend": "tensorflow"}',
 '{"class_name": "Sequential", "config": {"name": "sequential", "layers": [{"class_name": "Conv2D", "config": {"name": "conv2d", "trainable": true, "batch_input_shape": [null, 100, 100, 3], "dtype": "float32", "filters": 32, "kernel_size": [4, 4], "strides": [1, 1], "padding": "same", "data_format": "channels_last", "dilation_rate": [1, 1], "activation": "elu", "use_bias": true, "kernel_initializer": {"class_name": "VarianceScaling", "config": {"scale": 2.0, "mode": "fan_in", "distribution": "uniform", "seed": null}}, "bias_initializer": {"class_name": "Zeros", "config": {}}, "kernel_regularizer": null, "bias_regularizer": null, "activity_regularizer": null, "kernel_constraint": null, "bias_constraint": null}}, {"class_name": "MaxPooling2D", "config": {"name": "max_pooling2d", "trainable": true, "dtype": "float32", "pool_size": [2, 2], "padding": "valid", "strides": [2, 2], "data_format": "channels_last"}}, {"class_name": "Conv2D", "config": {"name": "conv2d_1", "trainable": true, "dtype": "float32", "filters": 64, "kernel_size": [4, 4], "strides": [1, 1], "padding": "same", "data_format": "channels_last", "dilation_rate": [1, 1], "activation": "elu", "use_bias": true, "kernel_initializer": {"class_name": "VarianceScaling", "config": {"scale": 2.0, "mode": "fan_in", "distribution": "uniform", "seed": null}}, "bias_initializer": {"class_name": "Zeros", "config": {}}, "kernel_regularizer": null, "bias_regularizer": null, "activity_regularizer": null, "kernel_constraint": null, "bias_constraint": null}}, {"class_name": "MaxPooling2D", "config": {"name": "max_pooling2d_1", "trainable": true, "dtype": "float32", "pool_size": [2, 2], "padding": "valid", "strides": [2, 2], "data_format": "channels_last"}}, {"class_name": "Conv2D", "config": {"name": "conv2d_2", "trainable": true, "dtype": "float32", "filters": 128, "kernel_size": [4, 4], "strides": [1, 1], "padding": "same", "data_format": "channels_last", "dilation_rate": [1, 1], "activation": "elu", "use_bias": true, "kernel_initializer": {"class_name": "VarianceScaling", "config": {"scale": 2.0, "mode": "fan_in", "distribution": "uniform", "seed": null}}, "bias_initializer": {"class_name": "Zeros", "config": {}}, "kernel_regularizer": null, "bias_regularizer": null, "activity_regularizer": null, "kernel_constraint": null, "bias_constraint": null}}, {"class_name": "MaxPooling2D", "config": {"name": "max_pooling2d_2", "trainable": true, "dtype": "float32", "pool_size": [2, 2], "padding": "valid", "strides": [2, 2], "data_format": "channels_last"}}, {"class_name": "Flatten", "config": {"name": "flatten", "trainable": true, "dtype": "float32", "data_format": "channels_last"}}, {"class_name": "Dense", "config": {"name": "dense", "trainable": true, "dtype": "float32", "units": 128, "activation": "elu", "use_bias": true, "kernel_initializer": {"class_name": "VarianceScaling", "config": {"scale": 2.0, "mode": "fan_in", "distribution": "uniform", "seed": null}}, "bias_initializer": {"class_name": "Zeros", "config": {}}, "kernel_regularizer": null, "bias_regularizer": null, "activity_regularizer": null, "kernel_constraint": null, "bias_constraint": null}}, {"class_name": "Dense", "config": {"name": "dense_1", "trainable": true, "dtype": "float32", "units": 1, "activation": "sigmoid", "use_bias": true, "kernel_initializer": {"class_name": "GlorotUniform", "config": {"seed": null}}, "bias_initializer": {"class_name": "Zeros", "config": {}}, "kernel_regularizer": null, "bias_regularizer": null, "activity_regularizer": null, "kernel_constraint": null, "bias_constraint": null}}]}, "keras_version": "2.2.4-tf", "backend": "tensorflow"}',
 '{"class_name": "Sequential", "config": {"name": "sequential", "layers": [{"class_name": "Conv2D", "config": {"name": "conv2d", "trainable": true, "batch_input_shape": [null, 64, 64, 3], "dtype": "float32", "filters": 32, "kernel_size": [4, 4], "strides": [1, 1], "padding": "same", "data_format": "channels_last", "dilation_rate": [1, 1], "activation": "elu", "use_bias": true, "kernel_initializer": {"class_name": "VarianceScaling", "config": {"scale": 2.0, "mode": "fan_in", "distribution": "uniform", "seed": null}}, "bias_initializer": {"class_name": "Zeros", "config": {}}, "kernel_regularizer": null, "bias_regularizer": null, "activity_regularizer": null, "kernel_constraint": null, "bias_constraint": null}}, {"class_name": "MaxPooling2D", "config": {"name": "max_pooling2d", "trainable": true, "dtype": "float32", "pool_size": [2, 2], "padding": "valid", "strides": [2, 2], "data_format": "channels_last"}}, {"class_name": "Conv2D", "config": {"name": "conv2d_1", "trainable": true, "dtype": "float32", "filters": 64, "kernel_size": [4, 4], "strides": [1, 1], "padding": "same", "data_format": "channels_last", "dilation_rate": [1, 1], "activation": "elu", "use_bias": true, "kernel_initializer": {"class_name": "VarianceScaling", "config": {"scale": 2.0, "mode": "fan_in", "distribution": "uniform", "seed": null}}, "bias_initializer": {"class_name": "Zeros", "config": {}}, "kernel_regularizer": null, "bias_regularizer": null, "activity_regularizer": null, "kernel_constraint": null, "bias_constraint": null}}, {"class_name": "MaxPooling2D", "config": {"name": "max_pooling2d_1", "trainable": true, "dtype": "float32", "pool_size": [2, 2], "padding": "valid", "strides": [2, 2], "data_format": "channels_last"}}, {"class_name": "Conv2D", "config": {"name": "conv2d_2", "trainable": true, "dtype": "float32", "filters": 128, "kernel_size": [4, 4], "strides": [1, 1], "padding": "same", "data_format": "channels_last", "dilation_rate": [1, 1], "activation": "elu", "use_bias": true, "kernel_initializer": {"class_name": "VarianceScaling", "config": {"scale": 2.0, "mode": "fan_in", "distribution": "uniform", "seed": null}}, "bias_initializer": {"class_name": "Zeros", "config": {}}, "kernel_regularizer": null, "bias_regularizer": null, "activity_regularizer": null, "kernel_constraint": null, "bias_constraint": null}}, {"class_name": "MaxPooling2D", "config": {"name": "max_pooling2d_2", "trainable": true, "dtype": "float32", "pool_size": [2, 2], "padding": "valid", "strides": [2, 2], "data_format": "channels_last"}}, {"class_name": "Flatten", "config": {"name": "flatten", "trainable": true, "dtype": "float32", "data_format": "channels_last"}}, {"class_name": "Dense", "config": {"name": "dense", "trainable": true, "dtype": "float32", "units": 128, "activation": "elu", "use_bias": true, "kernel_initializer": {"class_name": "VarianceScaling", "config": {"scale": 2.0, "mode": "fan_in", "distribution": "uniform", "seed": null}}, "bias_initializer": {"class_name": "Zeros", "config": {}}, "kernel_regularizer": null, "bias_regularizer": null, "activity_regularizer": null, "kernel_constraint": null, "bias_constraint": null}}, {"class_name": "Dense", "config": {"name": "dense_1", "trainable": true, "dtype": "float32", "units": 1, "activation": "sigmoid", "use_bias": true, "kernel_initializer": {"class_name": "GlorotUniform", "config": {"seed": null}}, "bias_initializer": {"class_name": "Zeros", "config": {}}, "kernel_regularizer": null, "bias_regularizer": null, "activity_regularizer": null, "kernel_constraint": null, "bias_constraint": null}}]}, "keras_version": "2.2.4-tf", "backend": "tensorflow"}',
 '{"class_name": "Sequential", "config": {"name": "sequential", "layers": [{"class_name": "Conv2D", "config": {"name": "conv2d", "trainable": true, "batch_input_shape": [null, 200, 200, 3], "dtype": "float32", "filters": 32, "kernel_size": [5, 5], "strides": [1, 1], "padding": "same", "data_format": "channels_last", "dilation_rate": [1, 1], "activation": "elu", "use_bias": true, "kernel_initializer": {"class_name": "VarianceScaling", "config": {"scale": 2.0, "mode": "fan_in", "distribution": "uniform", "seed": null}}, "bias_initializer": {"class_name": "Zeros", "config": {}}, "kernel_regularizer": null, "bias_regularizer": null, "activity_regularizer": null, "kernel_constraint": null, "bias_constraint": null}}, {"class_name": "MaxPooling2D", "config": {"name": "max_pooling2d", "trainable": true, "dtype": "float32", "pool_size": [2, 2], "padding": "valid", "strides": [2, 2], "data_format": "channels_last"}}, {"class_name": "Conv2D", "config": {"name": "conv2d_1", "trainable": true, "dtype": "float32", "filters": 64, "kernel_size": [5, 5], "strides": [1, 1], "padding": "same", "data_format": "channels_last", "dilation_rate": [1, 1], "activation": "elu", "use_bias": true, "kernel_initializer": {"class_name": "VarianceScaling", "config": {"scale": 2.0, "mode": "fan_in", "distribution": "uniform", "seed": null}}, "bias_initializer": {"class_name": "Zeros", "config": {}}, "kernel_regularizer": null, "bias_regularizer": null, "activity_regularizer": null, "kernel_constraint": null, "bias_constraint": null}}, {"class_name": "MaxPooling2D", "config": {"name": "max_pooling2d_1", "trainable": true, "dtype": "float32", "pool_size": [2, 2], "padding": "valid", "strides": [2, 2], "data_format": "channels_last"}}, {"class_name": "Conv2D", "config": {"name": "conv2d_2", "trainable": true, "dtype": "float32", "filters": 128, "kernel_size": [5, 5], "strides": [1, 1], "padding": "same", "data_format": "channels_last", "dilation_rate": [1, 1], "activation": "elu", "use_bias": true, "kernel_initializer": {"class_name": "VarianceScaling", "config": {"scale": 2.0, "mode": "fan_in", "distribution": "uniform", "seed": null}}, "bias_initializer": {"class_name": "Zeros", "config": {}}, "kernel_regularizer": null, "bias_regularizer": null, "activity_regularizer": null, "kernel_constraint": null, "bias_constraint": null}}, {"class_name": "MaxPooling2D", "config": {"name": "max_pooling2d_2", "trainable": true, "dtype": "float32", "pool_size": [2, 2], "padding": "valid", "strides": [2, 2], "data_format": "channels_last"}}, {"class_name": "Flatten", "config": {"name": "flatten", "trainable": true, "dtype": "float32", "data_format": "channels_last"}}, {"class_name": "Dense", "config": {"name": "dense", "trainable": true, "dtype": "float32", "units": 128, "activation": "elu", "use_bias": true, "kernel_initializer": {"class_name": "VarianceScaling", "config": {"scale": 2.0, "mode": "fan_in", "distribution": "uniform", "seed": null}}, "bias_initializer": {"class_name": "Zeros", "config": {}}, "kernel_regularizer": null, "bias_regularizer": null, "activity_regularizer": null, "kernel_constraint": null, "bias_constraint": null}}, {"class_name": "Dense", "config": {"name": "dense_1", "trainable": true, "dtype": "float32", "units": 1, "activation": "sigmoid", "use_bias": true, "kernel_initializer": {"class_name": "GlorotUniform", "config": {"seed": null}}, "bias_initializer": {"class_name": "Zeros", "config": {}}, "kernel_regularizer": null, "bias_regularizer": null, "activity_regularizer": null, "kernel_constraint": null, "bias_constraint": null}}]}, "keras_version": "2.2.4-tf", "backend": "tensorflow"}',
 '{"class_name": "Sequential", "config": {"name": "sequential", "layers": [{"class_name": "Conv2D", "config": {"name": "conv2d", "trainable": true, "batch_input_shape": [null, 100, 100, 3], "dtype": "float32", "filters": 32, "kernel_size": [5, 5], "strides": [1, 1], "padding": "same", "data_format": "channels_last", "dilation_rate": [1, 1], "activation": "elu", "use_bias": true, "kernel_initializer": {"class_name": "VarianceScaling", "config": {"scale": 2.0, "mode": "fan_in", "distribution": "uniform", "seed": null}}, "bias_initializer": {"class_name": "Zeros", "config": {}}, "kernel_regularizer": null, "bias_regularizer": null, "activity_regularizer": null, "kernel_constraint": null, "bias_constraint": null}}, {"class_name": "MaxPooling2D", "config": {"name": "max_pooling2d", "trainable": true, "dtype": "float32", "pool_size": [2, 2], "padding": "valid", "strides": [2, 2], "data_format": "channels_last"}}, {"class_name": "Conv2D", "config": {"name": "conv2d_1", "trainable": true, "dtype": "float32", "filters": 64, "kernel_size": [5, 5], "strides": [1, 1], "padding": "same", "data_format": "channels_last", "dilation_rate": [1, 1], "activation": "elu", "use_bias": true, "kernel_initializer": {"class_name": "VarianceScaling", "config": {"scale": 2.0, "mode": "fan_in", "distribution": "uniform", "seed": null}}, "bias_initializer": {"class_name": "Zeros", "config": {}}, "kernel_regularizer": null, "bias_regularizer": null, "activity_regularizer": null, "kernel_constraint": null, "bias_constraint": null}}, {"class_name": "MaxPooling2D", "config": {"name": "max_pooling2d_1", "trainable": true, "dtype": "float32", "pool_size": [2, 2], "padding": "valid", "strides": [2, 2], "data_format": "channels_last"}}, {"class_name": "Conv2D", "config": {"name": "conv2d_2", "trainable": true, "dtype": "float32", "filters": 128, "kernel_size": [5, 5], "strides": [1, 1], "padding": "same", "data_format": "channels_last", "dilation_rate": [1, 1], "activation": "elu", "use_bias": true, "kernel_initializer": {"class_name": "VarianceScaling", "config": {"scale": 2.0, "mode": "fan_in", "distribution": "uniform", "seed": null}}, "bias_initializer": {"class_name": "Zeros", "config": {}}, "kernel_regularizer": null, "bias_regularizer": null, "activity_regularizer": null, "kernel_constraint": null, "bias_constraint": null}}, {"class_name": "MaxPooling2D", "config": {"name": "max_pooling2d_2", "trainable": true, "dtype": "float32", "pool_size": [2, 2], "padding": "valid", "strides": [2, 2], "data_format": "channels_last"}}, {"class_name": "Flatten", "config": {"name": "flatten", "trainable": true, "dtype": "float32", "data_format": "channels_last"}}, {"class_name": "Dense", "config": {"name": "dense", "trainable": true, "dtype": "float32", "units": 128, "activation": "elu", "use_bias": true, "kernel_initializer": {"class_name": "VarianceScaling", "config": {"scale": 2.0, "mode": "fan_in", "distribution": "uniform", "seed": null}}, "bias_initializer": {"class_name": "Zeros", "config": {}}, "kernel_regularizer": null, "bias_regularizer": null, "activity_regularizer": null, "kernel_constraint": null, "bias_constraint": null}}, {"class_name": "Dense", "config": {"name": "dense_1", "trainable": true, "dtype": "float32", "units": 1, "activation": "sigmoid", "use_bias": true, "kernel_initializer": {"class_name": "GlorotUniform", "config": {"seed": null}}, "bias_initializer": {"class_name": "Zeros", "config": {}}, "kernel_regularizer": null, "bias_regularizer": null, "activity_regularizer": null, "kernel_constraint": null, "bias_constraint": null}}]}, "keras_version": "2.2.4-tf", "backend": "tensorflow"}',
 '{"class_name": "Sequential", "config": {"name": "sequential", "layers": [{"class_name": "Conv2D", "config": {"name": "conv2d", "trainable": true, "batch_input_shape": [null, 64, 64, 3], "dtype": "float32", "filters": 32, "kernel_size": [5, 5], "strides": [1, 1], "padding": "same", "data_format": "channels_last", "dilation_rate": [1, 1], "activation": "elu", "use_bias": true, "kernel_initializer": {"class_name": "VarianceScaling", "config": {"scale": 2.0, "mode": "fan_in", "distribution": "uniform", "seed": null}}, "bias_initializer": {"class_name": "Zeros", "config": {}}, "kernel_regularizer": null, "bias_regularizer": null, "activity_regularizer": null, "kernel_constraint": null, "bias_constraint": null}}, {"class_name": "MaxPooling2D", "config": {"name": "max_pooling2d", "trainable": true, "dtype": "float32", "pool_size": [2, 2], "padding": "valid", "strides": [2, 2], "data_format": "channels_last"}}, {"class_name": "Conv2D", "config": {"name": "conv2d_1", "trainable": true, "dtype": "float32", "filters": 64, "kernel_size": [5, 5], "strides": [1, 1], "padding": "same", "data_format": "channels_last", "dilation_rate": [1, 1], "activation": "elu", "use_bias": true, "kernel_initializer": {"class_name": "VarianceScaling", "config": {"scale": 2.0, "mode": "fan_in", "distribution": "uniform", "seed": null}}, "bias_initializer": {"class_name": "Zeros", "config": {}}, "kernel_regularizer": null, "bias_regularizer": null, "activity_regularizer": null, "kernel_constraint": null, "bias_constraint": null}}, {"class_name": "MaxPooling2D", "config": {"name": "max_pooling2d_1", "trainable": true, "dtype": "float32", "pool_size": [2, 2], "padding": "valid", "strides": [2, 2], "data_format": "channels_last"}}, {"class_name": "Conv2D", "config": {"name": "conv2d_2", "trainable": true, "dtype": "float32", "filters": 128, "kernel_size": [5, 5], "strides": [1, 1], "padding": "same", "data_format": "channels_last", "dilation_rate": [1, 1], "activation": "elu", "use_bias": true, "kernel_initializer": {"class_name": "VarianceScaling", "config": {"scale": 2.0, "mode": "fan_in", "distribution": "uniform", "seed": null}}, "bias_initializer": {"class_name": "Zeros", "config": {}}, "kernel_regularizer": null, "bias_regularizer": null, "activity_regularizer": null, "kernel_constraint": null, "bias_constraint": null}}, {"class_name": "MaxPooling2D", "config": {"name": "max_pooling2d_2", "trainable": true, "dtype": "float32", "pool_size": [2, 2], "padding": "valid", "strides": [2, 2], "data_format": "channels_last"}}, {"class_name": "Flatten", "config": {"name": "flatten", "trainable": true, "dtype": "float32", "data_format": "channels_last"}}, {"class_name": "Dense", "config": {"name": "dense", "trainable": true, "dtype": "float32", "units": 128, "activation": "elu", "use_bias": true, "kernel_initializer": {"class_name": "VarianceScaling", "config": {"scale": 2.0, "mode": "fan_in", "distribution": "uniform", "seed": null}}, "bias_initializer": {"class_name": "Zeros", "config": {}}, "kernel_regularizer": null, "bias_regularizer": null, "activity_regularizer": null, "kernel_constraint": null, "bias_constraint": null}}, {"class_name": "Dense", "config": {"name": "dense_1", "trainable": true, "dtype": "float32", "units": 1, "activation": "sigmoid", "use_bias": true, "kernel_initializer": {"class_name": "GlorotUniform", "config": {"seed": null}}, "bias_initializer": {"class_name": "Zeros", "config": {}}, "kernel_regularizer": null, "bias_regularizer": null, "activity_regularizer": null, "kernel_constraint": null, "bias_constraint": null}}]}, "keras_version": "2.2.4-tf", "backend": "tensorflow"}',
 '{"class_name": "Sequential", "config": {"name": "sequential", "layers": [{"class_name": "Conv2D", "config": {"name": "conv2d", "trainable": true, "batch_input_shape": [null, 200, 200, 3], "dtype": "float32", "filters": 32, "kernel_size": [5, 5], "strides": [1, 1], "padding": "same", "data_format": "channels_last", "dilation_rate": [1, 1], "activation": "elu", "use_bias": true, "kernel_initializer": {"class_name": "VarianceScaling", "config": {"scale": 2.0, "mode": "fan_in", "distribution": "uniform", "seed": null}}, "bias_initializer": {"class_name": "Zeros", "config": {}}, "kernel_regularizer": null, "bias_regularizer": null, "activity_regularizer": null, "kernel_constraint": null, "bias_constraint": null}}, {"class_name": "MaxPooling2D", "config": {"name": "max_pooling2d", "trainable": true, "dtype": "float32", "pool_size": [2, 2], "padding": "valid", "strides": [2, 2], "data_format": "channels_last"}}, {"class_name": "Conv2D", "config": {"name": "conv2d_1", "trainable": true, "dtype": "float32", "filters": 64, "kernel_size": [5, 5], "strides": [1, 1], "padding": "same", "data_format": "channels_last", "dilation_rate": [1, 1], "activation": "elu", "use_bias": true, "kernel_initializer": {"class_name": "VarianceScaling", "config": {"scale": 2.0, "mode": "fan_in", "distribution": "uniform", "seed": null}}, "bias_initializer": {"class_name": "Zeros", "config": {}}, "kernel_regularizer": null, "bias_regularizer": null, "activity_regularizer": null, "kernel_constraint": null, "bias_constraint": null}}, {"class_name": "MaxPooling2D", "config": {"name": "max_pooling2d_1", "trainable": true, "dtype": "float32", "pool_size": [2, 2], "padding": "valid", "strides": [2, 2], "data_format": "channels_last"}}, {"class_name": "Conv2D", "config": {"name": "conv2d_2", "trainable": true, "dtype": "float32", "filters": 128, "kernel_size": [5, 5], "strides": [1, 1], "padding": "same", "data_format": "channels_last", "dilation_rate": [1, 1], "activation": "elu", "use_bias": true, "kernel_initializer": {"class_name": "VarianceScaling", "config": {"scale": 2.0, "mode": "fan_in", "distribution": "uniform", "seed": null}}, "bias_initializer": {"class_name": "Zeros", "config": {}}, "kernel_regularizer": null, "bias_regularizer": null, "activity_regularizer": null, "kernel_constraint": null, "bias_constraint": null}}, {"class_name": "MaxPooling2D", "config": {"name": "max_pooling2d_2", "trainable": true, "dtype": "float32", "pool_size": [2, 2], "padding": "valid", "strides": [2, 2], "data_format": "channels_last"}}, {"class_name": "Flatten", "config": {"name": "flatten", "trainable": true, "dtype": "float32", "data_format": "channels_last"}}, {"class_name": "Dense", "config": {"name": "dense", "trainable": true, "dtype": "float32", "units": 128, "activation": "elu", "use_bias": true, "kernel_initializer": {"class_name": "VarianceScaling", "config": {"scale": 2.0, "mode": "fan_in", "distribution": "uniform", "seed": null}}, "bias_initializer": {"class_name": "Zeros", "config": {}}, "kernel_regularizer": null, "bias_regularizer": null, "activity_regularizer": null, "kernel_constraint": null, "bias_constraint": null}}, {"class_name": "Dense", "config": {"name": "dense_1", "trainable": true, "dtype": "float32", "units": 1, "activation": "sigmoid", "use_bias": true, "kernel_initializer": {"class_name": "GlorotUniform", "config": {"seed": null}}, "bias_initializer": {"class_name": "Zeros", "config": {}}, "kernel_regularizer": null, "bias_regularizer": null, "activity_regularizer": null, "kernel_constraint": null, "bias_constraint": null}}]}, "keras_version": "2.2.4-tf", "backend": "tensorflow"}',
 '{"class_name": "Sequential", "config": {"name": "sequential", "layers": [{"class_name": "Conv2D", "config": {"name": "conv2d", "trainable": true, "batch_input_shape": [null, 100, 100, 3], "dtype": "float32", "filters": 32, "kernel_size": [5, 5], "strides": [1, 1], "padding": "same", "data_format": "channels_last", "dilation_rate": [1, 1], "activation": "elu", "use_bias": true, "kernel_initializer": {"class_name": "VarianceScaling", "config": {"scale": 2.0, "mode": "fan_in", "distribution": "uniform", "seed": null}}, "bias_initializer": {"class_name": "Zeros", "config": {}}, "kernel_regularizer": null, "bias_regularizer": null, "activity_regularizer": null, "kernel_constraint": null, "bias_constraint": null}}, {"class_name": "MaxPooling2D", "config": {"name": "max_pooling2d", "trainable": true, "dtype": "float32", "pool_size": [2, 2], "padding": "valid", "strides": [2, 2], "data_format": "channels_last"}}, {"class_name": "Conv2D", "config": {"name": "conv2d_1", "trainable": true, "dtype": "float32", "filters": 64, "kernel_size": [5, 5], "strides": [1, 1], "padding": "same", "data_format": "channels_last", "dilation_rate": [1, 1], "activation": "elu", "use_bias": true, "kernel_initializer": {"class_name": "VarianceScaling", "config": {"scale": 2.0, "mode": "fan_in", "distribution": "uniform", "seed": null}}, "bias_initializer": {"class_name": "Zeros", "config": {}}, "kernel_regularizer": null, "bias_regularizer": null, "activity_regularizer": null, "kernel_constraint": null, "bias_constraint": null}}, {"class_name": "MaxPooling2D", "config": {"name": "max_pooling2d_1", "trainable": true, "dtype": "float32", "pool_size": [2, 2], "padding": "valid", "strides": [2, 2], "data_format": "channels_last"}}, {"class_name": "Conv2D", "config": {"name": "conv2d_2", "trainable": true, "dtype": "float32", "filters": 128, "kernel_size": [5, 5], "strides": [1, 1], "padding": "same", "data_format": "channels_last", "dilation_rate": [1, 1], "activation": "elu", "use_bias": true, "kernel_initializer": {"class_name": "VarianceScaling", "config": {"scale": 2.0, "mode": "fan_in", "distribution": "uniform", "seed": null}}, "bias_initializer": {"class_name": "Zeros", "config": {}}, "kernel_regularizer": null, "bias_regularizer": null, "activity_regularizer": null, "kernel_constraint": null, "bias_constraint": null}}, {"class_name": "MaxPooling2D", "config": {"name": "max_pooling2d_2", "trainable": true, "dtype": "float32", "pool_size": [2, 2], "padding": "valid", "strides": [2, 2], "data_format": "channels_last"}}, {"class_name": "Flatten", "config": {"name": "flatten", "trainable": true, "dtype": "float32", "data_format": "channels_last"}}, {"class_name": "Dense", "config": {"name": "dense", "trainable": true, "dtype": "float32", "units": 128, "activation": "elu", "use_bias": true, "kernel_initializer": {"class_name": "VarianceScaling", "config": {"scale": 2.0, "mode": "fan_in", "distribution": "uniform", "seed": null}}, "bias_initializer": {"class_name": "Zeros", "config": {}}, "kernel_regularizer": null, "bias_regularizer": null, "activity_regularizer": null, "kernel_constraint": null, "bias_constraint": null}}, {"class_name": "Dense", "config": {"name": "dense_1", "trainable": true, "dtype": "float32", "units": 1, "activation": "sigmoid", "use_bias": true, "kernel_initializer": {"class_name": "GlorotUniform", "config": {"seed": null}}, "bias_initializer": {"class_name": "Zeros", "config": {}}, "kernel_regularizer": null, "bias_regularizer": null, "activity_regularizer": null, "kernel_constraint": null, "bias_constraint": null}}]}, "keras_version": "2.2.4-tf", "backend": "tensorflow"}',
 '{"class_name": "Sequential", "config": {"name": "sequential", "layers": [{"class_name": "Conv2D", "config": {"name": "conv2d", "trainable": true, "batch_input_shape": [null, 64, 64, 3], "dtype": "float32", "filters": 32, "kernel_size": [5, 5], "strides": [1, 1], "padding": "same", "data_format": "channels_last", "dilation_rate": [1, 1], "activation": "elu", "use_bias": true, "kernel_initializer": {"class_name": "VarianceScaling", "config": {"scale": 2.0, "mode": "fan_in", "distribution": "uniform", "seed": null}}, "bias_initializer": {"class_name": "Zeros", "config": {}}, "kernel_regularizer": null, "bias_regularizer": null, "activity_regularizer": null, "kernel_constraint": null, "bias_constraint": null}}, {"class_name": "MaxPooling2D", "config": {"name": "max_pooling2d", "trainable": true, "dtype": "float32", "pool_size": [2, 2], "padding": "valid", "strides": [2, 2], "data_format": "channels_last"}}, {"class_name": "Conv2D", "config": {"name": "conv2d_1", "trainable": true, "dtype": "float32", "filters": 64, "kernel_size": [5, 5], "strides": [1, 1], "padding": "same", "data_format": "channels_last", "dilation_rate": [1, 1], "activation": "elu", "use_bias": true, "kernel_initializer": {"class_name": "VarianceScaling", "config": {"scale": 2.0, "mode": "fan_in", "distribution": "uniform", "seed": null}}, "bias_initializer": {"class_name": "Zeros", "config": {}}, "kernel_regularizer": null, "bias_regularizer": null, "activity_regularizer": null, "kernel_constraint": null, "bias_constraint": null}}, {"class_name": "MaxPooling2D", "config": {"name": "max_pooling2d_1", "trainable": true, "dtype": "float32", "pool_size": [2, 2], "padding": "valid", "strides": [2, 2], "data_format": "channels_last"}}, {"class_name": "Conv2D", "config": {"name": "conv2d_2", "trainable": true, "dtype": "float32", "filters": 128, "kernel_size": [5, 5], "strides": [1, 1], "padding": "same", "data_format": "channels_last", "dilation_rate": [1, 1], "activation": "elu", "use_bias": true, "kernel_initializer": {"class_name": "VarianceScaling", "config": {"scale": 2.0, "mode": "fan_in", "distribution": "uniform", "seed": null}}, "bias_initializer": {"class_name": "Zeros", "config": {}}, "kernel_regularizer": null, "bias_regularizer": null, "activity_regularizer": null, "kernel_constraint": null, "bias_constraint": null}}, {"class_name": "MaxPooling2D", "config": {"name": "max_pooling2d_2", "trainable": true, "dtype": "float32", "pool_size": [2, 2], "padding": "valid", "strides": [2, 2], "data_format": "channels_last"}}, {"class_name": "Flatten", "config": {"name": "flatten", "trainable": true, "dtype": "float32", "data_format": "channels_last"}}, {"class_name": "Dense", "config": {"name": "dense", "trainable": true, "dtype": "float32", "units": 128, "activation": "elu", "use_bias": true, "kernel_initializer": {"class_name": "VarianceScaling", "config": {"scale": 2.0, "mode": "fan_in", "distribution": "uniform", "seed": null}}, "bias_initializer": {"class_name": "Zeros", "config": {}}, "kernel_regularizer": null, "bias_regularizer": null, "activity_regularizer": null, "kernel_constraint": null, "bias_constraint": null}}, {"class_name": "Dense", "config": {"name": "dense_1", "trainable": true, "dtype": "float32", "units": 1, "activation": "sigmoid", "use_bias": true, "kernel_initializer": {"class_name": "GlorotUniform", "config": {"seed": null}}, "bias_initializer": {"class_name": "Zeros", "config": {}}, "kernel_regularizer": null, "bias_regularizer": null, "activity_regularizer": null, "kernel_constraint": null, "bias_constraint": null}}]}, "keras_version": "2.2.4-tf", "backend": "tensorflow"}']
